Tennis/checkpoint_critic.pth (torch_old, 365936 bytes, 7 tensors)

fc1a.weight f4 [200, 48]
00000000: 2289 123e 8193 7c3e 53ab 8fbd 4135 7cbe
00000010: 28bb 133e 9181 873d e438 563b 47e2 73be
00000020: 550f 783c d595 5f3e d5e7 6fbd 73c9 1a3d
00000030: e473 23bd 9e5c 0f3c f683 86bd f32e 46bd
00000040: 4c1e 8dbd 23f8 173e ba3f f13c 0fa4 6dbe
00000050: f230 73bc 1213 bebe 908b aabc 4b07 34be
00000060: c798 02be 8a39 273e 3c5a 9abd 7283 673d
00000070: c82d 19be f0d0 043e 6a26 653c 14ae 223e
00000080: 9aa9 c23d 1046 5a3e 2471 78bd 0dae 943d
00000090: ac3f 0fbd 9daf 8c3c d579 93bc 6813 343d
000000a0: 06ac 18bc 87f4 873e f674 45bd e03a c93d
000000b0: 44e9 d43d c0f7 afbe 9941 813b a62c 3f3e
000000c0: 23d3 7fbd 7de5 903e 0b5e 033d fbff 83bc
000000d0: 3347 bf3d 6beb 453e 5abd 1f3d c412 02bd
000000e0: 4c23 babb 3d46 013e a1d7 633d d982 80bc
000000f0: 4876 083d 8ea8 d73c b335 a33d b1b9 a6bd
00000100: a345 debd 9a72 183e 2896 883d c859 80bd
00000110: 8b06 03be fb99 9dbe a6a1 963d c011 56ba
00000120: f623 3a3e eced 53be 0293 313c b3da 80bd
00000130: 22d6 6ebd 9316 343e e303 3cba c920 2bbd
00000140: 7228 f83d f5f4 fbbd c4df bc3c cc80 303e
00000150: 5865 98bb 2444 83bd 20d5 883c f80d b43d
00000160: 7f64 29bc 5b19 a2be 67ee 61bd 23a2 efbd
00000170: 579a 2d3e 0ff1 b2be 2dc3 873d b704 1bbe
00000180: 2d92 c9bd 5fe6 ec3d b1c7 37bc a5f7 99bc
00000190: 9f27 53be 4220 61bd 952c 8d3c ec73 2cbd
000001a0: 9c58 81bd 6cdf 3c3e 693f 8dbd 11ac 213d
000001b0: 37c4 32bd c0b9 1fbe b857 663d 89d5 323d
000001c0: af3e 70be 7c60 073e abe5 0b3d d48d 7a3d
000001d0: 79ce 8a3e 6e98 90be 2390 ccba a914 343e
000001e0: bccf 46bd 4485 283d 6653 4d3d 7be4 243d
000001f0: d5ab 0e3e 12ca 78bd 419a 793c 26d2 393c
00000200: 7485 8fbc 6e07 a8bb 3c18 28bc 0363 f53d
00000210: 9f65 6bbc 926f 92bd f8b5 023d 6ca8 cd3d
00000220: 317a 13bc 7eb1 95bd ae99 d5bc c160 be3d
00000230: 0b1c 85be 8ce6 c2be 60d1 d5bc 2a8a 543e
00000240: 15ac 073e f43b 523e b87b 12bc 110f 5fbe
00000250: 7e66 6abd f86e e9bd ca19 25bd 536a 64be
00000260: 0f09 043e 0249 f63d 9939 9d3d cad8 2e3e
00000270: 23b2 08be 9957 68be 4409 713d 4608 0b3e
00000280: 54a5 013d 5e52 17bc b54e de3d 95d0 8cbc
00000290: 641a 9b3d ef08 15be 0110 cf3c 3cb4 b9bd
000002a0: e1b3 acbd 4416 d3be ba8b 463d 66ec c9bc
000002b0: 4d01 c53d 00ab e0bd 84fe 01bb f5e0 6ebd
000002c0: bbc8 36bc 32d9 69be eb4c 25bd fd8d a33d
000002d0: 3046 3f3c 39a7 32be a538 8fbc 0b99 b33c
000002e0: 628d 17bd 3007 97be 41a2 af3d 200e 743d
000002f0: 3072 b9bd 2e61 9fbd d9a0 823c 8fe0 043e
00000300: be75 14bb 19fd 08be 1325 aa3c bae1 f63d
00000310: 4106 45be 5d8c 743d d027 45bd 5d60 193e
00000320: eaf0 7d3d 9ca4 a2bc 1cc8 613b d9bf 733d
00000330: fdb6 2cbe 556b 0fbd decf 0dbc 9744 063e
00000340: 4cf6 543d b382 6b3e 7cc2 e1bb ad6b b83c
00000350: c7f8 e33b 547f af3d 3ebd 68bd b58f b0bc
00000360: 42c7 1cbe 0c8f ae3c 4183 07bd efde f2bc
00000370: 3d1e 5a3e 2a85 703c b9a0 163d efa2 6bbd
00000380: 71fe e53c 0a26 733d 3bca 163c 9a05 343e
00000390: 5154 663d 06c0 3b3c 4fd7 4b3c 9624 233e
000003a0: 5766 883c af98 193e 9909 21bd 1744 1c3e
000003b0: 8549 833a 159e 013e a328 d43c 95d1 7a3e
000003c0: 5918 19bd 2071 013f 22f9 4dbd d2e0 1c3d
000003d0: a02f 96ba 1068 493e 82da 463b c8de 223d
000003e0: d4cd 7dbd 3656 7c3e 89fe 2ebd 8012 4dbd
000003f0: deb2 ebbc 0396 263d e79b b33c ee85 81bd
0.14310125 0.24665643 -0.070150994 -0.2462969 0.14426863 0.0661651 0.0032687718 -0.23816787
0.015140374 0.218345 -0.0585707 0.037789773 -0.039905444 0.008750109 -0.06568138 -0.048384618
-0.06890544 0.1484075 0.029449333 -0.23207115 -0.014843212 -0.37123924 -0.020818502 -0.17580907
-0.12753592 0.16330543 -0.07536742 0.05652184 -0.1495887 0.12970328 0.013986209 0.15886718
0.09505005 0.21315789 -0.060654774 0.0725976 -0.03497283 0.017173583 -0.01800243 0.04396382
-0.009318357 0.26553747 -0.048207246 0.09825683 0.103960544 -0.34368706 0.0039445874 0.18669376
-0.062457215 0.28300086 0.03207211 -0.016113272 0.09339752 0.19328086 0.03899894 -0.031756178
-0.0056804772 0.1262445 0.05562556 -0.015687393 0.033315927 0.02632549 0.07969227 -0.081408866
-0.10853126 0.14887467 0.06669265 -0.062671244 -0.12795465 -0.3078154 0.07355051 -0.0008166097
0.1817778 -0.20696229 0.010838272 -0.062917136 -0.05830968 0.17586736 -0.000717221 -0.041779313
0.12117089 -0.12302581 0.023055919 0.17236632 -0.004650753 -0.06409481 0.016703188 0.08791727
-0.010338902 -0.3165997 -0.055159 -0.11700847 0.16953407 -0.34949538 0.06629024 -0.15138517
-0.09842334 0.11567377 -0.011217044 -0.018794844 -0.20620583 -0.054962404 0.017233172 -0.04210274
-0.06315729 0.18444604 -0.0689686 0.039470736 -0.043644156 -0.15598202 0.056236 0.043660674
-0.23461412 0.132204 0.034154575 0.061170414 0.2711065 -0.28241295 -0.0015606921 0.17586006
-0.048537955 0.041142717 0.050128363 0.04025696 0.13932736 -0.060739584 0.015234531 0.011341607
-0.01751969 -0.005127839 -0.010259684 0.119817756 -0.01436749 -0.071501866 0.03191182 0.100418895
-0.009001301 -0.073092446 -0.026074257 0.09295798 -0.25997958 -0.38066518 -0.026100814 0.2075583
0.13249238 0.20530683 -0.00894063 -0.21783091 -0.05722665 -0.11398119 -0.040307797 -0.22306184
0.1289408 0.12025644 0.076770015 0.17074886 -0.13349204 -0.22689666 0.058846727 0.13577375
0.03165181 -0.009235946 0.10854856 -0.017189303 0.07573393 -0.14554189 0.025276186 -0.0906758
-0.08432747 -0.41227925 0.048473097 -0.024648856 0.09619389 -0.10970116 -0.001983554 -0.058320004
-0.011156256 -0.2283676 -0.040356558 0.079860665 0.011674449 -0.17446603 -0.017483065 0.021923563
-0.037000068 -0.2949767 0.08575869 0.059583783 -0.09054983 -0.077822074 0.015945839 0.12976287
-0.0022653188 -0.13377799 0.020769631 0.12054773 -0.19240667 0.059704173 -0.04813367 0.14978166
0.06199733 -0.019853882 0.003445155 0.059509132 -0.1686668 -0.03501447 -0.008655516 0.13112102
0.0519927 0.22999077 -0.0068896394 0.022512281 0.006957147 0.08569208 -0.0568211 -0.0215529
-0.15310386 0.021308444 -0.033084158 -0.029647319 0.21300597 0.014680186 0.03677437 -0.057528432
0.028075429 0.05936245 0.009203489 0.17580262 0.056232754 0.011459356 0.01244147 0.15931925
0.016650362 0.1499965 -0.039315794 0.15260349 0.0010016417 0.1265796 0.025898283 0.24494012
-0.037376735 0.5056324 -0.05028642 0.038300343 -0.0011458285 0.19668603 0.0030342643 0.039763242
-0.06196387 0.24642262 -0.042723212 -0.05006647 -0.028771814 0.040670406 0.021924926 -0.06324373

fc1a.bias f4 [200]
00000000: 3149 5b3e 4e75 98bd b606 b33d b7e8 2f3e
00000010: 3c1c e6bd df3b 1fbe 6b18 fcbc 36db 95be
00000020: 35ee 75bd 22ad 173e b47c b03d fe77 0bbd
00000030: 0fd3 40be 1cc1 c5bd 8555 953d 544c 3cbe
00000040: 9751 c03d ad1c cdbc a62b 023e ed08 99be
00000050: cdf8 0e3d 0dba 03be 838f 30be 4948 9abd
00000060: f7e4 04be c561 0cbc ab44 96be 1e55 bdbe
00000070: 62d9 16be a77e 363e 6936 433c 19ed 9bbe
00000080: 1f9d 99be 49da cb3d e948 343e ceb1 3bbc
00000090: b7d6 d9be f369 8d3d 1f75 88bd b9e2 933d
000000a0: e4af 1ebe aae3 81bd 2e1b f439 312b 1f3e
000000b0: bece 903d 8ff5 d2bd 295f 803e 023a b4bd
000000c0: 3f74 8abd 3c31 73be 9310 0e3d 482d 18be
000000d0: efe6 1abe 969e eabe 4903 50be aa5d 5bbc
000000e0: d06b fabc 2653 2e3d 9ff7 bebd 5825 84bd
000000f0: 1ca3 76be cf37 253e 5f57 a0be 49eb 933d
00000100: ab85 c73d bc51 283d 6429 a0bd 0497 783c
00000110: 2ad6 e23d bd4a a4be 04a7 89be 248e 34bd
00000120: 4c8a 6cbd 2a78 f8bd 6198 88be 3516 8dbe
00000130: 2bd8 bfbd 2a42 9bbd 1d22 1bbe 4a34 10bd
00000140: b7b4 a4be b375 21be 723b 17bd a5ac 973e
00000150: 2b2c a4be f7c0 2cbe 8dd9 a7be 1b75 963d
00000160: 58e8 13be bbcb 543d f711 8dbd 2b76 c0bd
00000170: 0266 87be 8e88 9abe 0197 9a3d 234b 213e
00000180: 2af0 98bd 69b6 a7bc fab5 b2be 5237 97bc
00000190: 8fc7 75be 66a7 82be dca9 2fbe 1a76 6dbe
000001a0: f559 a4bd a0cc 1abe 9de6 79be 98bb 9ebe
000001b0: 4729 8bbd 8801 b7be 6a97 bcbe 9df8 f0bd
000001c0: 9bc4 1c3e 8cc7 7a3d 581f 9e3c 5939 d1bb
000001d0: 5c48 73be c626 12be e158 92be 4b16 113e
000001e0: fbe9 f0bd f085 1fbe c686 933c 5bb9 6d3c
000001f0: 3dfc 0abc e473 44bc 7a0d 39be 34ea ba3d
00000200: 01e2 13be 75e6 50be 3a9e 213d 453b db3b
00000210: f0a9 90be c6b9 30be 7c1a e0bb 28da abbb
00000220: 8996 15bd b7c5 87bd af46 d03e 5017 61be
00000230: 0111 8e3e 9f84 263e ca2d 0dbd e891 bebd
00000240: 0673 5dbd 6296 c9be 1cbf 6bbe 1ebf 76be
00000250: 794f 7e3e 2c80 17be e067 74bd 5da1 413e
00000260: c399 903d e616 053e f44e 73be ce12 183e
00000270: c13e 90be dece 6abe 4d62 f2bd e337 f03c
00000280: 708c dabe c404 7b3e 6523 c4bd 564f e7bd
00000290: b4ec 8cbd 0957 6f3d fe28 c2bd ddd3 90bc
000002a0: 8e35 05bc 194f 5dbe 337d 0bbd a8f7 da3e
000002b0: 42ea 163e f708 9dbd a5b4 16be 6087 e4bd
000002c0: d2b5 a83d 90d3 323e 02e3 553d e248 103e
000002d0: 4ee5 5f3e 03f8 1e3e 94c6 a8bd 2bcc 88bd
000002e0: 5d61 febd aa13 80bd 5447 5d3e 6739 b9be
000002f0: 4915 a83e c32e 2f3e be80 013e cd6a cabe
00000300: 0130 5cbe 7ebd 2ebd 81b9 41be 2cb8 96bd
00000310: 26ea ccbd 3163 febd 852a 13bd 8a79 98be
0.21414639 -0.07444249 0.087415144 0.17178617 -0.11235854 -0.15550183 -0.030773362 -0.29268807
-0.060041625 0.14812139 0.08617535 -0.03404998 -0.18830512 -0.09655973 0.07291702 -0.18388492
0.09390562 -0.025038088 0.12711963 -0.29889622 0.034905244 -0.12863941 -0.17242245 -0.075333185
-0.12977968 -0.008568232 -0.29349265 -0.36979002 -0.14731362 0.17821752 0.011914828 -0.3045433
-0.30002686 0.09953744 0.17605938 -0.011455966 -0.42546627 0.06904974 -0.06662964 0.07220978
-0.15496784 -0.063422516 0.00046559557 0.1554382 0.07070683 -0.10300743 0.250726 -0.088001266
-0.067604534 -0.2374925 0.034683775 -0.14861023 -0.15127157 -0.45824116 -0.20313753 -0.0133890305
-0.030568987 0.042559765 -0.09324574 -0.06452435 -0.24085659 0.1613457 -0.3131666 0.072226115
0.09742292 0.041093573 -0.07820395 0.015172724 0.11076005 -0.3208827 -0.26885235 -0.04408087
-0.057749078 -0.121322945 -0.26678756 -0.27556005 -0.09367403 -0.07580979 -0.15149732 -0.035206117
-0.32169124 -0.15767555 -0.036921926 0.29623905 -0.32064947 -0.16870485 -0.32783166 0.07346555
-0.14444101 0.051952105 -0.06888192 -0.09397539 -0.26445013 -0.30182308 0.07548333 0.15751319
-0.07467683 -0.020472722 -0.34904462 -0.018458996 -0.24001907 -0.2551834 -0.1715464 -0.23189583
-0.080249704 -0.1511712 -0.24404378 -0.31002498 -0.067949824 -0.35743356 -0.3683427 -0.11766169
0.15309374 0.06122546 0.019302055 -0.00638501 -0.23758072 -0.14272603 -0.28583434 0.1416866
-0.11763378 -0.15578437 0.0180086 0.014509524 -0.00848299 -0.011990521 -0.18071547 0.09126702
-0.14441682 -0.20400412 0.039457537 0.006690415 -0.28254652 -0.17258367 -0.0068390947 -0.005244512
-0.036520515 -0.06629508 0.40678927 -0.2198155 0.27747348 0.16261528 -0.034467496 -0.09305173
-0.054064773 -0.39372545 -0.23022121 -0.24096343 0.24835004 -0.14794987 -0.059669375 0.18909211
0.07060578 0.12997016 -0.23760587 0.14850923 -0.28172877 -0.22930476 -0.11835156 0.029323524
-0.4268527 0.24513537 -0.095770635 -0.11294429 -0.06881085 0.058432613 -0.09480475 -0.01767915
-0.008130444 -0.21612205 -0.034054946 0.42767072 0.147378 -0.076677255 -0.14717348 -0.11158633
0.082378045 0.17463517 0.052218445 0.14090303 0.21864817 0.15524296 -0.08241001 -0.06679567
-0.12420914 -0.062537506 0.21609241 -0.36176607 0.3282874 0.17107682 0.12646767 -0.39534608
-0.21502687 -0.042661183 -0.1891842 -0.07359347 -0.10005598 -0.12421263 -0.03592922 -0.29780227

fc2.weight f4 [200, 204]
00000000: feea babd fbc9 ebbd 97ce e93c 48b5 1abd
00000010: 1793 a9be bdef 1abe cf8b 0a3c 972c 20be
00000020: 03e7 303d 6fb0 6c3d 5303 df3b d0ce fbbc
00000030: 07cb 1bbd 088d bd3c 88b9 cd3c ff4b 05bd
00000040: dc29 61bc edaf f6bc 30ba 99be c9e3 22bd
00000050: c50a a2bd b9c3 86bd c458 b43d cdb9 833d
00000060: e086 853b c10a 003e b1a3 bc3d 234f c83d
00000070: 27ee 56bd 2b8c 57bd 3ebb fa3a 0fee aebd
00000080: 7b76 8c3d 578b 1ebd 806a 353d b29b 863d
00000090: d4ee 52be 6790 73bd 0ae1 f6bd 3d72 a03b
000000a0: 50f0 30be 2099 02bd 3489 75be d9c8 283e
000000b0: 7d13 2e39 b7e6 64be 9a39 4a3e aca8 8f3d
000000c0: 6427 34be 8426 433c 9ac2 78bd d950 10be
000000d0: 6137 513d 9ae4 6dbd 8945 fabd 7a19 c4be
000000e0: 5474 0dbe 2bcf 02be 0e9d b33c 32dc 2dbd
000000f0: 78b7 01bd a6d1 45be 0927 3e3d 9a51 13be
00000100: b86b 98bc d270 1fbb f5bf 123e ba1b 533e
00000110: 5a99 de3d fd30 b23d dbac aebc e88b 50bd
00000120: 8170 eabd 2064 ccbd a660 133e b14b 14be
00000130: a511 81bd 7d14 49bd a3c7 fbbd 5426 e1bc
00000140: 17e0 f23d cfe8 093e 41ae d5bd d5f0 5bbc
00000150: 84e0 d63c 7e47 63bd e32c 3cbe 5797 e93d
00000160: ec7e ccbc b605 5cbc 6f14 743d ef65 ea3b
00000170: e6c1 94be 31e9 4d3b b0b3 bcbe 63c1 02be
00000180: cf98 3ebe 5129 2b3d 6ccd 84bd 3d89 ed3d
00000190: 99ec bb3d 2ed7 b7be b536 3c3d db99 4cbd
000001a0: cdd2 9c3d bb30 133d 024f 92be c99b cdbc
000001b0: bc4d 483d 2a30 83bb 0cb7 1b3e 0824 9ebc
000001c0: 67cc 363e 759e f9bc 878f ab3d 5368 bf3c
000001d0: 2b2b de3a 17a7 163d 88ff 0a3e 4494 853d
000001e0: 3521 b23d 398a 22bc 303a cabc 3358 44be
000001f0: 282f d53d e599 35be 41ac 8c3d 5e35 5bbd
00000200: a297 0abe b454 f43c 1af7 3fbe e6d7 2abe
00000210: 4b2e babd 8237 8fbd 612a 1dbd e247 1f3d
00000220: c0f2 2cbd 7248 b43d 5f64 223e 4bd1 5fbe
00000230: 749c 8abd adf7 f2bc 506b 05bd 8c60 203e
00000240: f33f 42bd b892 babd 3a72 943d 9c48 a4bd
00000250: a799 203e 492e 4c3d 539a 863d df08 b5bc
00000260: 259e 29bd d7a5 f23c 6c6e 41bd e743 1f3d
00000270: 9e7a c93d 255f c83d cb7b 56bf c442 debd
00000280: 9b5a ce3c ec59 71be 4e7c cb3c 431f 103e
00000290: 17f1 5f3d 0576 783d d5bc 51bd ad8d 82bd
000002a0: bfe8 8e3d 141d 5bbd 661c db3b cbd3 3b3d
000002b0: 1825 1fbd 37ca a33d 7a1e 4bbd 52c4 0e3c
000002c0: 5974 00be 0209 8a3d 2307 1a3e 10b9 373d
000002d0: 7ee3 adbc 16b4 1bbe f16c a9bc e2eb 8cbb
000002e0: fd3c 27be d5b0 e33c 38d0 e13d 834b f43d
000002f0: 5a04 48bd 7203 513c 5d00 d53d 8a20 133e
00000300: b710 d7bb 4b11 12be 9949 a5bd b261 47bd
00000310: 996b d33c f34c 4a3e 1e94 3d3d 88ad ffbd
00000320: a97b 80be fde9 21be dc09 723e 9367 a83e
00000330: ab12 0f3d adbf 793d 2881 94bb 88d7 133e
00000340: 71cd 55be 203d 86be 807a 47bd 106e 0fbd
00000350: 652c acbb 9db4 893d 85b3 3bbd 31e4 033d
00000360: 1a36 bebd 3234 863b 87f1 dc3d 98e2 053d
00000370: 1c7b 163d e826 54bc a235 dcbc d029 c4bd
00000380: 15ea 7ebd 72eb 473b e429 22bd e36f 6ebe
00000390: 51f8 80bc 4a7c 0bbc a66d 2dbe dfe2 ccbc
000003a0: 0396 39bd efd5 2abe 6d08 17bd a9c2 d53c
000003b0: f4ff 84bc 9eb6 acbd 4336 33bd 5b53 3c3d
000003c0: 173f fbbc ce51 243d 8693 043e 017d a03b
000003d0: c7c1 20bd c7dd 8b3d 74fd f7bc 33ac a13c
000003e0: 9657 3c3d 2fd7 2cbd 4b57 9abe 1216 d53d
000003f0: 413e 8ebe 30d6 d73d dc3f 50bd 45e8 dc3b
-0.091268525 -0.11513134 0.028540893 -0.03777054 -0.33120033 -0.15130515 0.0084561845 -0.1564201
0.04318906 0.057785448 0.006805816 -0.030738264 -0.03803542 0.023138538 0.025112882 -0.03254318
-0.01374289 -0.030113185 -0.30024862 -0.039768014 -0.079122104 -0.065803 0.08805993 0.06431923
0.0040749162 0.12504102 0.09210909 0.09780719 -0.052473214 -0.05262391 0.0019129289 -0.085415
0.06858536 -0.038707104 0.04429102 0.06572665 -0.20598918 -0.059463885 -0.120546415 0.0048964308
-0.17279172 -0.031884313 -0.2397812 0.16482867 0.00016601193 -0.22353636 0.19748536 0.070145935
-0.17593151 0.011911038 -0.06073246 -0.14093341 0.051078204 -0.05807934 -0.12220294 -0.38300687
-0.13813907 -0.12774341 0.021925475 -0.042446323 -0.03166911 -0.19318256 0.046423946 -0.14386597
-0.018606052 -0.002432872 0.14331038 0.20616046 0.10869093 0.0870075 -0.021322658 -0.050914675
-0.1144724 -0.09980035 0.14392337 -0.14481999 -0.063021936 -0.049091805 -0.12293937 -0.027484097
0.11859148 0.13467716 -0.10433627 -0.013424118 0.026230104 -0.055488102 -0.18376498 0.11405819
-0.024962865 -0.013429096 0.0595898 0.0071532647 -0.29054183 0.003141951 -0.3685584 -0.12769084
-0.1861298 0.04178745 -0.064844936 0.11598442 0.09175987 -0.35906357 0.04595061 -0.049951416
0.076573946 0.035935145 -0.28575903 -0.025098698 0.04890226 -0.0040035443 0.15206546 -0.01930429
0.17851411 -0.030471066 0.08376985 0.023365175 0.0016950121 0.036780443 0.1357404 0.0652242
0.0869774 -0.00992065 -0.02468595 -0.1917427 0.10409385 -0.17734487 0.06868792 -0.05351769
-0.13534406 0.029825546 -0.18746606 -0.16683921 -0.09090861 -0.06993009 -0.038370494 0.038886912
-0.042223692 0.0880288 0.15858601 -0.21857183 -0.06768122 -0.029659117 -0.032573044 0.1566183
-0.047424268 -0.09110016 0.072483495 -0.08021662 0.15683614 0.04984883 0.06572404 -0.022098957
-0.041410584 0.029620094 -0.047224447 0.038883116 0.098378405 0.097837724 -0.83782643 -0.10852578
0.025189688 -0.23569459 0.024839547 0.14074425 0.05467328 0.060659427 -0.051205475 -0.06374679
0.069779865 -0.053494528 0.006686735 0.04585628 -0.038853735 0.07997554 -0.04958961 0.008713799
-0.12544383 0.06739999 0.15041785 0.044854224 -0.02122664 -0.15205416 -0.02068183 -0.0043005804
-0.16331859 0.027794281 0.11026043 0.11928465 -0.048832275 0.012757169 0.1040046 0.14367881
-0.006563272 -0.14264409 -0.08070678 -0.048677154 0.025808142 0.19755916 0.046283834 -0.1248427
-0.25094345 -0.15811916 0.23636574 0.3289152 0.034929913 0.060973812 -0.004531998 0.14437687
-0.20879151 -0.2621851 -0.04870081 -0.035017073 -0.0052543157 0.067239024 -0.0458255 0.032200042
-0.09287663 0.0040955776 0.10788255 0.0326868 0.0367385 -0.012948729 -0.026881043 -0.095782876
-0.062234957 0.0030505327 -0.03959073 -0.23284869 -0.015743406 -0.00851352 -0.16936359 -0.025010524
-0.045309078 -0.16683172 -0.03687327 0.026093798 -0.01623533 -0.08433269 -0.04375292 0.04597793
-0.030669732 0.040117078 0.129469 0.004897714 -0.0392473 0.0682941 -0.030272223 0.019735431
0.045981966 -0.042197403 -0.30144724 0.104046 -0.2778187 0.105389 -0.05084215 0.006741556

fc2.bias f4 [200]
00000000: 2554 12be e61a 063c 0300 a6bb a782 23bd
00000010: d752 753d 3307 903d 8f21 163d f51c 69bd
00000020: 1466 20be 8564 5dbd 86be 7b3d 4f62 bb3d
00000030: 4109 7d3d 0886 073c 75d4 043d 00c4 7abd
00000040: e829 65bc 0a9d 23bc dce1 24be ee23 8ebd
00000050: d0fd 923c 1401 373c 4b66 4bbe 57cf ea3c
00000060: 2bfb 663e 33d6 12be b9b8 98bc 0802 c23d
00000070: 4cd3 c5bd 4eb3 d13c d1ef 413d f1b3 7b3b
00000080: f256 973d 7a33 dfbd b2ca fbbd 6fbc 41be
00000090: 2517 9bbc 0b48 673d 9eae cc3d fb9d b4bd
000000a0: 2845 ffbd a875 673d 1b3a b4bd 9d94 a4bd
000000b0: 9d2c f5bd 6d4c 563d 68a6 d43d 9f61 073e
000000c0: f557 99be 38dc 093c 1317 01be b67b 2c3e
000000d0: f427 2fbe e5d7 a5bd 3f83 06be 8b4b 25bc
000000e0: ac68 60bd 17d9 39bd 8d0d 793c 8721 8ebd
000000f0: f95f 52bc 956b 253d 2874 49bd 8d37 8ebd
00000100: 5684 82bd 5432 09bd 16fd b13d 656f bebd
00000110: 00cd 1fbd 0692 02be b2e8 853d e31a bcbd
00000120: f055 10be 840d 143e 8e35 623c c386 0fbd
00000130: 2e18 8039 213b 04bd cf98 2fbb ea0b ba3d
00000140: cbba bfbd 6365 9b3c 218c 173d 930f 48bd
00000150: edf1 44bd 4291 903d ee57 c8bd fbeb 4f3c
00000160: 0de5 67bd f456 24be dfd3 a3bd 6768 69be
00000170: 05e9 ee3c 69df 4cbd a0e6 213d 78cc 2a3e
00000180: 8c5f c53a 4d07 bbbd 6fd2 e53c 188a 6cbd
00000190: 77f7 2ebd d804 b939 7598 06be a131 de3d
000001a0: f966 35bd 1e2e 15bd 57c1 c23d 8f61 a8bd
000001b0: ce5e 6dba 5002 63bd af31 a6bd d328 b73d
000001c0: d977 ea3d bea1 bb3b 64b9 9bbd e1ee eb3d
000001d0: 92f0 603d 7dcb 12be bb6c e9bd dd7b 4abe
000001e0: f553 223d 2a67 a63d a206 39bd e226 7cbc
000001f0: eccc c83d cfbd 0cbe 8a9a 01bc 7950 92bd
00000200: e398 2f3e b369 fa3c f243 073e ff40 40bd
00000210: 20d3 93bc d76f 64bd da5b 673d 4c56 b43d
00000220: 5784 063d 9b5a 2c3c f956 09be 0746 b13c
00000230: 1900 a23d b72c c73d 3343 9fbc fc05 36bd
00000240: c22f 003e 32b2 06be 1c52 d8bc af67 243d
00000250: c8c3 713d 30ac f4bd 43d1 3bbd 9951 3abe
00000260: 1aa1 40bc b68e 15be 6370 633c 387c 2a3e
00000270: 13a1 c8bd c4aa 2abe d705 9abd 23d3 97bd
00000280: 5f12 32bb 238a 0abd 7ae5 9abb 2927 80be
00000290: 2b41 88bd 7476 bcbd 20ff 1bbd 09ef 353e
000002a0: ab8c eebc eae6 97bc 2635 983c cde1 5d3c
000002b0: 59e0 e1bd ab70 9f3a cb85 25be 2e59 eb3d
000002c0: 7041 503c fde8 483d 0113 bcbd f615 b9bc
000002d0: ca91 e9bd 508d e0bc 6f90 953d 5245 aebb
000002e0: e90b e3bc fb2d 953c abc6 113d bae8 0e3e
000002f0: a074 e73c 9c7d 503c f470 0bbe a8c7 f4bb
00000300: ed5d ddbc e609 98bc d2c3 40bd 735b 16bb
00000310: eebf 963b 1094 bd3d ec12 c4bc df43 46bd
-0.14289911 0.008185124 -0.0050659194 -0.03991952 0.059893455 0.07032623 0.036653098 -0.05691238
-0.1566394 -0.05405094 0.061460994 0.0914961 0.061776403 0.008271702 0.032429177 -0.061222076
-0.013987042 -0.0099861715 -0.16101784 -0.06940447 0.017943293 0.011169691 -0.1986324 0.02866332
0.2255675 -0.14339523 -0.01864277 0.09473044 -0.09659442 0.025598194 0.047347847 0.0038406814
0.073896304 -0.1089849 -0.122945204 -0.18919538 -0.018931935 0.05646519 0.09994243 -0.08819195
-0.124643624 0.05650869 -0.08800145 -0.08036158 -0.119714 0.05231898 0.10383302 0.13220833
-0.29949918 0.008414321 -0.12606458 0.16844067 -0.17105085 -0.08097819 -0.13136004 -0.010088812
-0.054787323 -0.04537305 0.015200985 -0.069399886 -0.0128402645 0.0403858 -0.04918304 -0.06944189
-0.06372897 -0.033495262 0.086908504 -0.092985906 -0.039013863 -0.12751016 0.06538524 -0.09184816
-0.14095283 0.14458281 0.013806714 -0.03504063 0.00024432078 -0.032282952 -0.0026793962 0.09084304
-0.093618 0.018969243 0.03699887 -0.048842978 -0.04808228 0.07058956 -0.09782396 0.0126905395
-0.056614924 -0.16048795 -0.079993956 -0.22793733 0.029163847 -0.050017748 0.03952658 0.16679561
0.0015058382 -0.09132252 0.028054444 -0.057748884 -0.04271647 0.0003528956 -0.13144095 0.1084931
-0.044287656 -0.036420934 0.09509533 -0.08221733 -0.00090549595 -0.055422127 -0.08114945 0.089433335
0.114486404 0.0057260683 -0.0760372 0.11520172 0.054916926 -0.14335437 -0.11397692 -0.19773813
0.03963085 0.08125146 -0.04517234 -0.01539013 0.09804711 -0.13744281 -0.00791038 -0.07144255
0.17148165 0.03056798 0.13209513 -0.046936985 -0.018045008 -0.05577072 0.05648408 0.08805522
0.032841053 0.010519649 -0.13412084 0.021639837 0.07910175 0.097253256 -0.019441223 -0.0444393
0.12518218 -0.13153914 -0.02640634 0.040137943 0.059024602 -0.11946905 -0.045853864 -0.1819519
-0.01175716 -0.14605221 0.013881776 0.16648948 -0.097963475 -0.16666704 -0.07520645 -0.07413318
-0.0027171595 -0.033823144 -0.004727063 -0.25029877 -0.06653055 -0.09202281 -0.038085103 0.17766966
-0.02911981 -0.018542726 0.01858003 0.013542605 -0.11029119 0.0012164315 -0.16164319 0.11491619
0.012710914 0.04905032 -0.09183312 -0.02259348 -0.1140476 -0.027411133 0.07302939 -0.005318322
-0.02771564 0.018210402 0.035589855 0.13955966 0.028253853 0.01272526 -0.13617307 -0.00747009
-0.027022326 -0.018559407 -0.04706175 -0.0022942692 0.0046005165 0.09256756 -0.023934804 -0.04840457

fc3.weight f4 [200, 200]
00000000: 86f4 d2bd 8408 cfbc e226 27be f0f2 9bbc
00000010: 0651 94bc 3559 41bd a8f4 1eba bfc9 59bd
00000020: 700b cb3c 2157 c23d e032 c6bc 4c3f bbbd
00000030: 089a cb3a e3ff cd3b 6cd9 143c 5c47 9ebe
00000040: 28cd a9bd 91e1 66bd d330 55bd d271 d23d
00000050: 70ef ca3d d1ad 1fbd 0923 023e c2f6 c2bd
00000060: fe6c 5b3d ff26 633d 86ed 913c 6b72 6b3d
00000070: 56e0 683c 2c74 0bbd db1d 6ebe 1483 7c3d
00000080: 5c2b 29bc ee6e 063d 001d 66bd 302a 923d
00000090: 5939 953d e84f 093e 7a07 d73d fb41 cd3d
000000a0: 08a1 f73d eb9d 91bd 7958 a73c 356a b4be
000000b0: ae85 48be e126 7ebd ae1c 0ebd 14e0 d8bd
000000c0: 1d5e 6cbd 9953 653d 34af db3c 44c5 e33d
000000d0: 2955 1a3e 8f3f 1fbe 7ad1 2e3d 59f8 393d
000000e0: 704e 213d 2bbf ff3c ce24 cbbc 280d 31bd
000000f0: 0fad 84bd 855e 403d fad2 783d 2bce 233e
00000100: 284b 7c3c 385a f93c 176d 113e 9b58 bebd
00000110: 1a72 a5bb f001 c13c 9877 28be 884a 8abe
00000120: 10a7 4c3d 6c5a d83c 3deb 9c3c 9334 9f3c
00000130: 8538 babd 981c 7a3d 6be2 173d 1daf f23d
00000140: 96d6 863c 6520 86bc 0307 0abe 964c 7ebd
00000150: ff20 4abe cc0a 07bd a1b5 0a3e 776e 1ebd
00000160: 8182 b43a 1a87 11be 01ea bc3c 3de2 f9bc
00000170: 9d18 49be 1543 c4bc 35fa 963d 8432 9cbd
00000180: 32e0 17be 4a60 fcbb 3bc6 ddbd e740 c9bd
00000190: 7715 19be d857 453e 0526 f5bc d61b 86bd
000001a0: 9521 373c 6038 07be 3569 a03c 03f7 973d
000001b0: a133 6c3d 4427 c7bd 9039 393d ae71 2dbd
000001c0: 7cd7 d7bd e8aa b9bd d59d b4bd 5da4 cbbe
000001d0: 354d b1bd 2645 063c b97c 7fbd 6350 873d
000001e0: 0471 de3c 3dca edbd 6df5 9c3d 2b9d ecbb
000001f0: a78a 4c3d cc23 93bc faf2 543d ff7c 29bd
00000200: 6a00 9a3d 40ef 6d3e 0dfd a33c fa29 c23d
00000210: e89c a93d 809d 9dbd cc5a 5abb 43b8 613d
00000220: 6bc0 82bc d184 833d fae3 923d 6356 193d
00000230: ae18 263d bd57 09be a4b4 51bd ff0e 2b3a
00000240: 3254 ea3d 1877 993c bd99 04be 2fe2 f53d
00000250: 3eaa 393e 1fb0 4abd ae85 77bd 702c 0cbe
00000260: 6fa8 cd3b 22fd 933d 76e4 153d 7a3a a53d
00000270: d369 34bd 0284 cabd d102 d23d 7b0b c6ba
00000280: 5053 90bd a0ff 23be 4e16 2bbe 3f58 82bd
00000290: 0db3 a0be 4b2c 683d 0e1f 6b3c 355f 53be
000002a0: 691f fa3d a806 10be e140 003e 3d35 703c
000002b0: 828c e0bc eb07 3f3d a66f 0abe 8ad6 a93d
000002c0: b3aa 21be cba1 993d eae4 e63c c873 533a
000002d0: 749d 0a3d 75a1 f338 d865 78bd da75 d83d
000002e0: 86c7 20be 267e 6fbd d4f3 2a3e 42f7 3cbe
000002f0: 47a6 5b3d 1281 223c 161e 2a3e 6796 0d3e
00000300: a2f6 c3bd e176 ab3d 4b0b 243d 9325 ecbd
00000310: 027a 883d 5158 8a3d a66a debb a70a 353e
00000320: 60dc 23bd cafb 093e 505e c13c d637 48be
00000330: e93b 76bd 0457 f4bd 90aa a1be 27d5 5a3c
00000340: ea28 693d 02f4 733d 1be7 9f3d a555 8b3c
00000350: 15c8 a0bd 0268 a9bd 603d 23be fbc9 503d
00000360: 1b4b a3bd 1984 623d ecc7 c23d a9ba c63d
00000370: 5d48 d93d d1a0 43bd d80a 43bd 1ff0 9f3d
00000380: 8fec 11bc 2d6b a63b 1b16 823d 9d1a 11bc
00000390: abea 163e 0c2f b93c ef83 843c d45b cf3d
000003a0: dd55 0e3e e363 753c aa76 30bd 7c98 41bd
000003b0: 83b2 1ebe 6922 173d 848a 8a3d d2f2 ccbd
000003c0: 5cfb aebd c512 b83c 0243 4a3b 0d5b b13d
000003d0: 526d 1cbd e813 b93b 7628 c13d 9e76 273e
000003e0: d465 063c 86ae 34be a502 edbc f2e2 2cbd
000003f0: 15cd 8b3c 264f 56bd fad5 03bd 28f1 6ebc
-0.103005454 -0.025272615 -0.16323426 -0.01903674 -0.018105041 -0.047204215 -0.00060636783 -0.053170916
0.024785727 0.09489275 -0.024194181 -0.09142932 0.0015533576 0.0062866076 0.009085041 -0.30913818
-0.082910836 -0.05636746 -0.052048516 0.10275616 0.0990895 -0.038984124 0.12708677 -0.095197216
0.05357074 0.05545711 0.017813455 0.057482164 0.014213642 -0.034046337 -0.23253576 0.061648443
-0.010325279 0.032820635 -0.05618 0.07136953 0.07286329 0.13409388 0.10499473 0.100223504
0.12091261 -0.071101986 0.02042793 -0.3523728 -0.19582245 -0.062048797 -0.03469532 -0.105896145
-0.05770694 0.055987928 0.026816942 0.1112161 0.15071549 -0.1555159 0.04268024 0.04540286
0.039381444 0.031219086 -0.024797823 -0.043225437 -0.06478321 0.04696514 0.060748078 0.15996616
0.015398778 0.030438527 0.1420177 -0.09294244 -0.0050490024 0.023560494 -0.16451871 -0.27009988
0.04996401 0.026410304 0.01915514 0.019434249 -0.090928115 0.061062425 0.037081163 0.118498065
0.016459744 -0.016372869 -0.13479237 -0.062084757 -0.1973915 -0.03296928 0.13545848 -0.038679566
0.0013771803 -0.14211693 0.0230608 -0.030503387 -0.19638295 -0.023957768 0.07371942 -0.076268226
-0.14831617 -0.0077019082 -0.10828825 -0.09826832 -0.14949594 0.19271791 -0.029925356 -0.06548278
0.01117744 -0.13205099 0.019581417 0.074201606 0.057666425 -0.09724286 0.04522091 -0.04234474
-0.10539147 -0.09065801 -0.088191666 -0.39773837 -0.08657304 0.008195197 -0.062374804 0.066071294
0.0271535 -0.116108395 0.07663999 -0.0072208843 0.049936917 -0.017961405 0.051989533 -0.04137897
0.0751961 0.23235798 0.020018125 0.09480663 0.082818806 -0.07696056 -0.003331828 0.055107366
-0.015960893 0.06421817 0.07172389 0.0374359 0.04055088 -0.13412376 -0.051197663 0.0006525367
0.1144184 0.018733546 -0.12949272 0.12006032 0.18131348 -0.04948437 -0.06043022 -0.13688827
0.0062761824 0.072260156 0.03659483 0.08067794 -0.044046234 -0.0988846 0.102544434 -0.0015109623
-0.070471406 -0.16015482 -0.16707727 -0.06364488 -0.31386605 0.056682866 0.014350666 -0.20641787
0.12213022 -0.14065039 0.1252475 0.0146611305 -0.02741075 0.04663841 -0.13519153 0.08292873
-0.15787773 0.07501563 0.028185327 0.0008066264 0.033841565 0.00011617217 -0.060644 0.105693534
-0.15701112 -0.058469914 0.16694576 -0.18453696 0.05362537 0.009918468 0.1661304 0.13826905
-0.09568526 0.08372284 0.040049832 -0.11530604 0.06663896 0.06755126 -0.006787616 0.17679845
-0.040005088 0.13474956 0.023604542 -0.1955255 -0.06011573 -0.119306594 -0.3157544 0.013356484
0.056923784 0.059558876 0.07807752 0.017008612 -0.078506626 -0.08271791 -0.15941381 0.050973874
-0.079733096 0.05530176 0.09510788 0.09703571 0.10609505 -0.04776079 -0.047617763 0.07809471
-0.008906498 0.0050786943 0.063518725 -0.008856443 0.14737956 0.022605442 0.016176192 0.10124937
0.13899942 0.014977428 -0.043081917 -0.04726456 -0.15497784 0.03689805 0.06764701 -0.10007252
-0.08544037 0.022469888 0.0030862694 0.08659945 -0.038190193 0.005648125 0.094315454 0.16353843
0.008202989 -0.176447 -0.028931925 -0.04220862 0.017065564 -0.052321576 -0.032186486 -0.014583863

fc3.bias f4 [200]
00000000: 3106 633d 7ab4 203e 8594 8ebe 93ed 463d
00000010: 2f78 23be e01a 8a3e 5701 5f3d fd22 89bd
00000020: 79b8 b9bb f7fb 433c 293a f63d d3c0 debc
00000030: b7e8 63be 68b5 2fbe e9ce d93d b1e8 643e
00000040: 5a38 97be 6b58 bd3c 0a23 d3bd 53e7 82be
00000050: f85c fd3d 6b50 a7bd 497f 303b 962b ca3d
00000060: 26ce 37bc f1a0 e33d 239a 903d 8d1a 393e
00000070: 7267 7c3e 2546 1fbe 6894 45be e2fd 193e
00000080: 0599 cdbc 1b7e 1abe 1e2a 263d 4e4b 6fbd
00000090: ee6d 163e c345 813d b94f 0dbe 8e89 273e
000000a0: 1b46 6cbc de46 c43d b803 8c3d 51cc 8abc
000000b0: 67b8 ea3d a8cf 6abc f462 18bb d332 34be
000000c0: 51d6 aa3d 6be8 1bbd 913d debc d2ed afbe
000000d0: c273 a537 95c0 27be 9a9a d83d 7a08 18be
000000e0: 8b91 44be e282 833d c573 873c ca67 b43d
000000f0: f260 22bc 94de 743d 1059 52bd 56e3 c93a
00000100: e8a3 823e 1931 743c 54ac 1a3d 3f5f 933d
00000110: 33a3 dc3d 752f 343d e630 1c3e 5d1e 663e
00000120: 26a8 78be 7fda 9b3e 9ada dfbb aea3 953d
00000130: cf32 94bd 4d74 2d3e 1731 bb3d e365 3c3e
00000140: 425a 713e f41f 883d 0f9b 273e f051 82be
00000150: d898 4d3d 2a89 3ebe 5fb4 2a3d 58ae dabd
00000160: 78ea ef3d 1780 123c 2790 f2bd c66e 14bd
00000170: 8436 76bd 7e1d fc3c 1476 39be bbba b93d
00000180: 35f4 f7bc 14a8 a2bd 51b7 ae3d 0c0a 623e
00000190: 8928 ee3c 3087 ab3d e063 623c 77db 68be
000001a0: d78f d03d 8979 45be e67c ab3d 59cb 143c
000001b0: ed63 183d d67e 403e 1c24 a23d 50a4 c93d
000001c0: bd5a f9bd 1803 1c3e 9e82 a13e a49f 2c3b
000001d0: 7270 783c d8a0 1cbe cb68 acbd e347 c5bd
000001e0: 6a63 243e 22d8 6a3d 325e 243e baf8 8ebd
000001f0: baf3 16bd 3f1b ce3b dcd2 84bd 1ecd 57bd
00000200: 38c1 23be c944 2ebe 7427 f2bb 4129 933d
00000210: e5e0 b9bc 01dd 99bc 4c4b 9abe 8f6f c3bd
00000220: cf04 013c 7144 49bd 53fe 50be 2c40 bcbc
00000230: 81ec 663d 1d53 61bd a092 473e 3f85 e4bd
00000240: f711 23be f253 663d 72a7 83be 4aef 193e
00000250: fec2 103e 7a38 d13d 9da9 223e c8b3 26be
00000260: d7fa 42bd 4539 67be f44a f53d 4d86 853e
00000270: c725 743d c499 4e3e f7b9 853e 8080 fdbc
00000280: 6d52 013e 3b76 e3bd 4769 fdbc 13a2 c9bd
00000290: a289 eebb 6959 9e3d a1ac 3cbe dfa1 a4bd
000002a0: 8633 393c ae0f 393e fd90 0dbe fad6 a23d
000002b0: 6c5a 10be 6f71 713e ac89 8bbd cb92 1d3d
000002c0: b5a0 3c3c 3824 4cbe 3f28 bf3d a9cb 2cbd
000002d0: 0814 a33d a8d9 973d 693d 713e c1a8 1f3e
000002e0: 83b6 93bd c132 e7bc d8f8 dbbd 8e78 08be
000002f0: 7fe4 65be f4d8 c53d eac4 9c3b 8948 613e
00000300: eaba 0cbe 6e12 89bd 0668 3cbe 827d 99be
00000310: 06b4 7a3d 5000 503d d62e a73c 0589 ffbd
0.055425826 0.15693846 -0.27847686 0.048566412 -0.15963815 0.2697363 0.054444637 -0.066961266
-0.005667743 0.011961929 0.12022812 -0.027191555 -0.22256742 -0.17159045 0.10635168 0.2235439
-0.2953518 0.02311345 -0.103094175 -0.2556711 0.12371248 -0.081696354 0.0026931337 0.098715946
-0.011218583 0.111146815 0.07060649 0.18076535 0.24648836 -0.15554102 -0.19294894 0.15038255
-0.02509738 -0.15087168 0.04056751 -0.058421426 0.14690372 0.06312134 -0.13799943 0.16361067
-0.014421011 0.09583829 0.06836647 -0.016943129 0.11460953 -0.014331736 -0.002325234 -0.17597513
0.08341659 -0.038063448 -0.027128967 -0.3436113 1.9723437e-05 -0.16382058 0.10576363 -0.14846984
-0.19196145 0.06421448 0.016534695 0.08808859 -0.009910809 0.05978258 -0.051354468 0.0015402834
0.25515676 0.014904284 0.037762 0.07195901 0.10773315 0.04399057 0.15253028 0.2247252
-0.24282894 0.30440137 -0.0068314793 0.0730661 -0.072362535 0.16938896 0.091402225 0.18398242
0.23569587 0.066467196 0.16367744 -0.25453138 0.05019459 -0.18607011 0.04167592 -0.10677785
0.11714643 0.008941672 -0.11843901 -0.036238454 -0.060110584 0.030775782 -0.1811145 0.09068819
-0.030267814 -0.079422146 0.085310586 0.22074145 0.029072063 0.08375394 0.013817757 -0.22739969
0.10183685 -0.19284643 0.08373432 0.009081685 0.03720467 0.18798384 0.079170436 0.09845793
-0.1217551 0.15235555 0.31544966 0.002634027 0.015163528 -0.15295732 -0.08418425 -0.09632852
0.16053548 0.057335027 0.16051558 -0.069810346 -0.03685353 0.006289869 -0.06485531 -0.05268585
-0.15991676 -0.17018427 -0.007389957 0.07185603 -0.022690246 -0.01878214 -0.30135572 -0.095427625
0.007874682 -0.049137536 -0.20409517 -0.022979818 0.05637789 -0.055010904 0.19489527 -0.11158227
-0.15924822 0.0562324 -0.25713688 0.15032688 0.14136884 0.1021585 0.15885015 -0.16279519
-0.0476025 -0.2258044 0.11977187 0.26079026 0.05960634 0.20175844 0.26118442 -0.030945063
0.12629099 -0.11106535 -0.03093399 -0.09845366 -0.0072795907 0.077318974 -0.18425228 -0.08038687
0.011303788 0.18072388 -0.1382484 0.0795116 -0.14096993 0.23578428 -0.06813368 0.03847007
0.011512925 -0.19935691 0.09333848 -0.042186413 0.07962805 0.074145615 0.23558582 0.15591718
-0.07212546 -0.028222444 -0.107408226 -0.13327238 -0.22450446 0.09660521 0.004784216 0.22000326
-0.13743177 -0.06692968 -0.18399057 -0.29978567 0.06120684 0.050781548 0.020408075 -0.12477306

fc4.weight f4 [1, 200]
00000000: ab0a 863d 23bd 413d e192 46bd 1920 613d
00000010: 144c 2cbd 013a 253d 3eee a73d edeb 26be
00000020: 6858 84bd e433 2f3e 31cc 9f3d 3770 53bd
00000030: 5163 55bd ca74 8bbd 7b3b 163d 62de 2d3d
00000040: 57be d5bd 7358 4fbd 11a7 9ebd 259e 9abd
00000050: 61fe 723d e64a 58bd 2d69 ffbd 3c6d 073e
00000060: 9d7f d0bd c61a 413d 38bd 423d fdef 4a3d
00000070: d3c6 4f3d e521 8bbd 07d3 51bd 3dce 483d
00000080: 7df9 48bd ddd0 48bd f691 3b3e a57e d13d
00000090: d9fd 183e f00b 253e fe12 77bd 963a 3c3d
000000a0: 3dc8 05be cffe 273e f56d 5a3d b369 aebd
000000b0: 00e1 233d 2e65 ca3d 51f5 cbbd 53e3 19bd
000000c0: b39b a33d 42a3 32bd ed08 7ebd 181a 88bd
000000d0: d877 1cbe 299e 68bd a0ef 333d b256 21bd
000000e0: a36b 69bd dcae 5e3d e6c9 afbd cea1 543d
000000f0: 55c5 7cbd a5b2 3a3d 2df0 3cbd 09b5 79bd
00000100: b02a 233d 311e c93d 193f 473d 8728 07be
00000110: 9960 453d d434 ac3d b9c4 0e3d 5907 443d
00000120: a6ba 58bd 80af 393d 52c4 a2bd 83a2 443d
00000130: b83b 0abe e115 503d 3690 733d c86a 1f3d
00000140: 8414 003d 7883 863d e404 253d e089 41bd
00000150: 70bd 8d3d 86ff 89bd 32ac 323e 9b64 2cbe
00000160: 0523 583e 2aae 8abd e184 0abe 3c5d b43d
00000170: 5f95 a2bd 1dd8 303d df0d 40bd 97ab 3b3e
00000180: cd7c cfbd 7dd9 58bd b110 1f3d a4ab 553d
00000190: ae2e 623d 61b6 17be 0c6a 6f3d 1cd1 9abd
000001a0: c1d4 343d 6c7f 4dbd 567a 203d 8d1b 96bd
000001b0: 76d7 853d 3d04 3c3d a5da 6e3d 393d 9d3d
000001c0: 83f2 92bd 838c 923d 3602 473d 18ef a93d
000001d0: 7f94 99bd 7315 d1bd 0702 0b3e 50fc 35bd
000001e0: 1bf1 363d 9781 d43c 376e 5e3d b8b5 1bbd
000001f0: 80bf 67bd 36e6 d73d 8de3 41bd 5e50 adbd
00000200: de52 8abd 28da 44bd 40d7 84bd 99dd 113e
00000210: 2774 3bbd c8ef 9dbd 9aca 6ebd 1030 95bd
00000220: f5c6 bd3d 83a7 18bd a6e9 82bd 94fa 2e3e
00000230: b695 243e 7e8a 9ebd 1276 113d c9e0 a7bd
00000240: c9ad 72bd 8122 333e 4ce9 8abd 54c5 423d
00000250: e779 c23d bda1 313d c15f 353d a9c8 07be
00000260: cedf 8bbd 01a9 70bd c185 393d d393 3f3d
00000270: f458 7b3d 64a8 393d f7c1 1c3d 12dc 76be
00000280: 14be 233d c265 8fbd 1bd4 423e 312b 48bd
00000290: 8fe6 6abd e741 723d f82d aebd d43e f23d
000002a0: b567 8e3d 62f2 343d 11ac 15bd f263 c73d
000002b0: 2a81 72bd 7189 593d b5ea 6dbd f33c 733d
000002c0: 1713 bf3d 5d42 35bd c527 0cbe 471f 8dbd
000002d0: e756 a7bd 6be0 293e 83bb 623d 8aef 213e
000002e0: 3fca 83bd 7788 453e 05b1 21bd 98a9 45bd
000002f0: a5f1 c4bc 5cbb af3d 1226 153e 6c1d 533d
00000300: 7cd3 25bd 84cf 51be 31b7 65bd 3fd6 13bd
00000310: 0fd8 b23d 28cb 333d 8446 21be 487d 7bbd
0.065450035 0.047299515 -0.04847992 0.05496225 -0.04206474 0.04033852 0.08199738 -0.16300936
-0.06462175 0.17109638 0.07802618 -0.05162069 -0.05209667 -0.06809385 0.03667782 0.04244841
-0.10436695 -0.05062146 -0.07746709 -0.07549695 0.059324626 -0.052805804 -0.124712326 0.13225263
-0.1018059 0.047144674 0.047543734 0.049545277 0.050726723 -0.06793574 -0.051226642 0.04902481
-0.049066056 -0.049027313 0.18317398 0.10229234 0.14940585 0.16117835 -0.060320847 0.04595431
-0.13064666 0.16405796 0.05332752 -0.08516254 0.0400095 0.0988258 -0.099589 -0.03757031
0.07988682 -0.043612726 -0.06202023 -0.06645602 -0.15280092 -0.05679146 0.043929696 -0.03938932
-0.056987416 0.054365978 -0.08583431 0.05191212 -0.061711628 0.045580525 -0.046127487 -0.060963664
0.03983563 0.09820212 0.04864416 -0.13199054 0.048187826 0.08408514 0.034855578 0.04785857
-0.052912377 0.045333385 -0.079476014 0.048006546 -0.13499343 0.050802115 0.059463702 0.038920194
0.031269565 0.065680444 0.040287867 -0.04725063 0.06920898 -0.0673819 0.174485 -0.16835253
0.21107109 -0.067715004 -0.13527252 0.088068455 -0.079386465 0.04317485 -0.04688823 0.18327175
-0.10131226 -0.052941788 0.038834278 0.052165642 0.0552203 -0.14815666 0.058450744 -0.07559416
0.04414821 -0.050170347 0.03917917 -0.07329474 0.065352365 0.04590248 0.058313984 0.07677693
-0.07175162 0.07155707 0.048586093 0.08297557 -0.074990265 -0.10209169 0.13574992 -0.044430077
0.04466353 0.0259407 0.054304328 -0.038015097 -0.056579113 0.10541956 -0.04733615 -0.084625944
-0.06754087 -0.048059613 -0.06486368 0.14244689 -0.04576507 -0.0771175 -0.058298685 -0.07284558
0.09266464 -0.037269127 -0.06392221 0.17087775 0.16072735 -0.07741259 0.03551299 -0.08197171
-0.059247766 0.17493631 -0.06782779 0.047551468 0.09495907 0.043367136 0.04428077 -0.1326014
-0.06829797 -0.058754925 0.045293573 0.046771836 0.06136413 0.045326605 0.038270917 -0.24107388
0.039976195 -0.07001831 0.19026224 -0.048869316 -0.057348784 0.05914488 -0.085048616 0.1182839
0.06953374 0.044176467 -0.03654105 0.0973586 -0.05920521 0.05310959 -0.058085162 0.059384298
0.09329813 -0.044252742 -0.13687046 -0.06890731 -0.08170872 0.16589515 0.055354606 0.15814033
-0.0643506 0.19290338 -0.03947546 -0.04825744 -0.024041006 0.08580658 0.14565304 0.05154173
-0.04048489 -0.20489317 -0.056082908 -0.036092993 0.08732616 0.043894917 -0.15749556 -0.061398774
