Tennis/checkpoint_actor.pth (torch_old, 344338 bytes, 8 tensors)

fc1.weight f4 [200, 24]
0	0x3e529ba5	0.20567186
1	0xbd04f009	-0.032455478
2	0xbdb2938a	-0.08719547
3	0xbea3e74f	-0.32012412
4	0x3e25875e	0.1616492
5	0x3df72f56	0.120695755
6	0xbd9fab42	-0.07796337
7	0xbe6f2e20	-0.23357439
8	0x3e9f45c6	0.3110792
9	0xbe105b64	-0.14097363
10	0x3d423ddb	0.04742227
11	0xbb540d69	-0.0032356626
12	0x3de437e4	0.11143473
13	0x3e8fc0f7	0.28076908
14	0x3d2a295f	0.04154336
15	0xbdfe27f0	-0.12409961
16	0x3e8d0110	0.27539873
17	0xbcc66854	-0.02421967
18	0xbcf7ced4	-0.03024999
19	0xbd3b8ad3	-0.04578669
20	0x3d8a2f85	0.06747345
21	0x3e9b9d6b	0.30393538
22	0x3da335f4	0.07969275
23	0xbd4e5d87	-0.050382163
24	0x3d97b605	0.07407764
25	0x3d1c9f85	0.038238067
26	0xbd0d6793	-0.034522604
27	0xbd2afe6d	-0.041746546
28	0x3d6ce09d	0.057831395
29	0x3d96b84d	0.07359371
30	0xbcee7050	-0.02910629
31	0xbd3f504b	-0.046707433
32	0x3d5563a8	0.052096993
33	0x3dff5a1f	0.12468361
34	0x3dcc9416	0.09989183
35	0x3d9050b2	0.070466414
36	0xbdf74e2b	-0.12075456
37	0x3c03afd8	0.00803753
38	0x3dff43ec	0.12464127
39	0x3ce5f754	0.028072037
40	0x3e266b78	0.16251934
41	0x3d47046c	0.0485882
42	0xba449ce1	-0.00075001834
43	0x3e03379d	0.12814184
44	0xbe2908da	-0.16507283
45	0x3d9a534d	0.075354196
46	0x3d3be3cf	0.045871552
47	0x3dc44947	0.09584289
48	0x3ebef21d	0.37294093
49	0x3e4d5d96	0.20055231
50	0x3e4a69a1	0.19766857
51	0xbe42bc6e	-0.19017193
52	0xbdc7eec3	-0.09762337
53	0xbe68756a	-0.2270104
54	0x3e391283	0.18073468
55	0xbde4f564	-0.11179617
56	0x3e5e4564	0.21706158
57	0x3e3c4798	0.18386686
58	0x3d20b6b9	0.039236758
59	0xbdc830de	-0.09774946
60	0x3bb72b09	0.005589847
61	0xbe1c8072	-0.15283373
62	0xbd8b02fb	-0.06787678
63	0xbe020549	-0.12697329
64	0x3e3cd3b0	0.18440127
65	0x3e0c2460	0.13685751
66	0xbd59b907	-0.05315497
67	0xbd16e8fd	-0.03684329
68	0x3dc98b6d	0.098410465
69	0xbe91cb60	-0.28475475
70	0xbd01bd6b	-0.031674784
71	0xbcce5e37	-0.02519141
72	0xbd87d9da	-0.06633349
73	0x3e33c85e	0.17556903
74	0x3b8edde5	0.004359948
75	0x3dd5ff68	0.104491055
76	0xbe61a703	-0.22036366
77	0xbe4e1a34	-0.20127183
78	0xbce799cb	-0.028271576
79	0x3c782ec5	0.0151478695
80	0xbb9a5db0	-0.0047108755
81	0x3e358aa2	0.17728665
82	0xbbeaf208	-0.0071699657
83	0xb9c891c5	-0.0003825558
84	0xbdaf826d	-0.085697986
85	0xbeaec1f8	-0.3413236
86	0xbd78299b	-0.060586553
87	0xbb819757	-0.0039548087
88	0xbe00bb59	-0.12571467
89	0x3e9ba2ac	0.30397546
90	0xbd1ca989	-0.03824762
91	0x3daaa33e	0.08331917
92	0xbc167592	-0.009183304
93	0xbf2edc31	-0.68304735
94	0xbcf83361	-0.030297937
95	0x3ddce906	0.10786633
96	0xbcb2659b	-0.021776965
97	0xbe619543	-0.22029595
98	0xbca74f3b	-0.020423522
99	0x3e156cde	0.14592311
100	0x3eadbcac	0.33933008
101	0xbe1f4643	-0.15554146
102	0xbdaaedc9	-0.08346135
103	0x3e1f51b2	0.15558508
104	0xbd935b75	-0.071951784
105	0xbda571b7	-0.0807833
106	0xbcbe9b0b	-0.02326729
107	0xbba0a54d	-0.004902518
108	0x3dbca7c4	0.09211686
109	0xbe244e19	-0.16045417
110	0x3d3d8bab	0.046275776
111	0x3b7c6f68	0.0038518552
112	0xbde204d2	-0.11036076
113	0xbe1f73af	-0.15571474
114	0xbd26b827	-0.040702965
115	0x3d233003	0.03984071
116	0xbdf51ad7	-0.1196801
117	0x3deb677a	0.11494346
118	0xbc864254	-0.01638905
119	0x3d7cc2d9	0.06170926
120	0xbd7d818b	-0.06189112
121	0x3da2fce4	0.07958391
122	0x3dc07a4e	0.09398328
123	0x3d078a4c	0.033090875
124	0x3e612ae5	0.21989019
125	0xbcc4d6ff	-0.0240283
126	0x3d99e016	0.07513444
127	0x3d1919ab	0.037377995
128	0xbd57b8b5	-0.052666385
129	0x3e0e5be0	0.13902235
130	0xbd3a7c3d	-0.04552864
131	0xbd36bf4f	-0.04461604
132	0xbc317886	-0.010831958
133	0x3e38b980	0.18039513
134	0xbd353f57	-0.04424986
135	0xbce7a5ce	-0.028277304
136	0x3d9b3460	0.07578349
137	0x3dd70615	0.10499207
138	0xbc6f3350	-0.014599636
139	0xbdacb1f5	-0.0843238
140	0xbe4bd619	-0.1990589
141	0x3eceeaae	0.4041342
142	0x3aa95a68	0.001292062
143	0xbde77827	-0.11302214
144	0x3e38d500	0.18050003
145	0xbc98239f	-0.018571673
146	0x3d6cf88c	0.05785422
147	0x3df98030	0.12182653
148	0x3a5e8607	0.00084885996
149	0x3e1a1498	0.15046918
150	0x3d2c1fda	0.042022564
151	0x3d890001	0.06689454
152	0x3ed519dd	0.41621295
153	0x3de6b31d	0.11264632
154	0x3e0841e5	0.13306387
155	0xbdd15d53	-0.10222878
156	0x3deabb2f	0.11461484
157	0x3dfdad60	0.12386584
158	0x3e05741c	0.13032573
159	0xbdf12129	-0.11773903
160	0x3e7c951f	0.2466626
161	0xbd977fd1	-0.07397426
162	0x3d245133	0.0401165
163	0xbe0ddb99	-0.13853301
164	0x3e7a9c88	0.24473774
165	0xbdda315a	-0.10653944
166	0xbd0e40bd	-0.034729708
167	0xbddd2aef	-0.107992046
168	0x3eba50c0	0.36389732
169	0xbf119b59	-0.56877667
170	0x3dab9cad	0.08379493
171	0xbe92deea	-0.28685695
172	0x3da74df1	0.08169163
173	0x3e200b0d	0.15629216
174	0xbc3739dd	-0.011183229
175	0xbe5eed56	-0.21770224
176	0x3eac7074	0.33679545
177	0xbec211b4	-0.3790413
178	0x3b8e9383	0.004351081
179	0x3c7d1fa7	0.015449441
180	0x3e42854e	0.18996164
181	0x3e41dcd9	0.18931903
182	0xbce163b6	-0.027513366
183	0x3bd68559	0.006546658
184	0x3ea65283	0.32484826
185	0xbec02f3f	-0.37536046
186	0x3d6da837	0.05802175
187	0x3dd85c23	0.10564449
188	0x3e06d5df	0.13167523
189	0x3e3a8bde	0.18217418
190	0x3ba14313	0.004921326
191	0x3e48dab7	0.19614683
192	0xbe062271	-0.13099076
193	0x3e911a9e	0.2834062
194	0x3cac5fb6	0.021041732
195	0xbe3b0570	-0.18263793
196	0x3e3f8def	0.18706487
197	0xbeb991c0	-0.3624401
198	0x3cbb3c54	0.022855915
199	0xbe19160c	-0.14949816
200	0xbe1ca5db	-0.15297644
201	0x3e921b2b	0.28536353
202	0x3d532af2	0.051554628
203	0xbd05864a	-0.03259877
204	0x3db3656f	0.08759581
205	0xbe7903dc	-0.24317878
206	0xbd128f60	-0.035781264
207	0xbd558c95	-0.052136023
208	0xbe04c0f2	-0.12964228
209	0x3eadc084	0.3393594
210	0xbabb3c85	-0.0014285004
211	0xbd6242f9	-0.05523965
212	0xbe3d56d0	-0.18490148
213	0x3b35402e	0.0027656662
214	0xbcbabe91	-0.022795947
215	0x3d174859	0.03693423
216	0xbd91d641	-0.07120944
217	0x3d54b494	0.051930025
218	0x3e00a451	0.12562682
219	0xbe005235	-0.1253136
220	0x3dbf4dae	0.09340988
221	0xbd936d78	-0.07198614
222	0x3d451dda	0.04812417
223	0xbdca95de	-0.09891866
224	0x3dcd38b5	0.10020582
225	0xbd24d258	-0.040239662
226	0xbc433968	-0.011915542
227	0xbdc8b761	-0.09800602
228	0xbe04bdaf	-0.12962984
229	0x3c239c7f	0.009986042
230	0xbc0d1687	-0.008611328
231	0xbdf790c9	-0.120881625
232	0x3d98c2fe	0.07459067
233	0xbdfbbe29	-0.122921295
234	0xbd7dc4a6	-0.061955117
235	0x3d7e95cf	0.062154587
236	0xbee0afb8	-0.43884063
237	0x3d38661d	0.045019258
238	0x3c92e286	0.01793028
239	0xbcfa3cf1	-0.030546637
240	0xbcdf1fff	-0.027236937
241	0x3f07092c	0.5274837
242	0xbd3b0320	-0.045657277
243	0xbc64a330	-0.013954923
244	0xbe2e3707	-0.17013179
245	0xbe4e6540	-0.20155811
246	0xbbf794b4	-0.0075555686
247	0xbe000218	-0.12500799
248	0xbd494338	-0.04913637
249	0x3ee8b8f3	0.45453605
250	0xbd99fe86	-0.075192496
251	0xbde1d88c	-0.11027631
252	0x3d0dc6a2	0.03461326
253	0xbe336f9b	-0.17523043
254	0xbd24decc	-0.04025154
255	0xbd232978	-0.03983447

fc1.bias f4 [200]
0	0xbd450bb2	-0.048106857
1	0xbda4eb6c	-0.08052716
2	0x3d77864d	0.060430814
3	0x3e4fa02e	0.20275947
4	0xbe8ba48f	-0.27273986
5	0xbe9981ee	-0.2998194
6	0xbe02101d	-0.12701459
7	0x3d8a9852	0.06767334
8	0xbe5401e7	-0.2070385
9	0xbd06bd42	-0.032895334
10	0x3d847791	0.06468118
11	0xbd6a16b2	-0.05715055
12	0x3da3d767	0.08000069
13	0xbc95bd9f	-0.018278895
14	0x3e118b50	0.142133
15	0xbddfde8b	-0.109311186
16	0x3e1f6238	0.15564811
17	0xbc935a9e	-0.017987546
18	0xbd6842a9	-0.056704197
19	0x3e154c81	0.14579965
20	0xbe0d8340	-0.13819599
21	0xbda4d6eb	-0.08048805
22	0xbe897bdb	-0.26852307
23	0xbd8a9028	-0.06765777
24	0x3da380b3	0.07983532
25	0xbe5861b4	-0.21131021
26	0xbdfefa87	-0.12450128
27	0xbe62a26d	-0.22132273
28	0x3e4287cf	0.1899712
29	0xbda67ce4	-0.0812929
30	0x3d703630	0.058645427
31	0xbdbc2dc2	-0.09188415
32	0x3d6d4452	0.057926483
33	0xbdc116df	-0.094281904
34	0xbe17326d	-0.1476533
35	0xbe021d5a	-0.12706509
36	0xbd035dc4	-0.032071844
37	0xbe5a55a9	-0.2132174
38	0xbcbaba5a	-0.022793937
39	0xbd425d15	-0.04745205
40	0xbe217c49	-0.15770067
41	0xbe8c260f	-0.27372786
42	0xbdb74687	-0.08948999
43	0xbea2a2da	-0.3176487
44	0xbd2076c8	-0.03917578
45	0xbd86c28c	-0.065800756
46	0xbe416fbd	-0.18890281
47	0xbe81b820	-0.2533579
48	0x3da675c7	0.08127933
49	0x3c2a484d	0.010393214
50	0xbd81860d	-0.06324396
51	0xbde97640	-0.113995075
52	0x3de0461c	0.10950872
53	0xbe38a891	-0.18033053
54	0x3c538399	0.012909793
55	0x3e19cc8b	0.15019433
56	0xbdae926f	-0.08524024
57	0xbdb78a0b	-0.089618765
58	0x3de67ab0	0.112538695
59	0xbdf6e5d0	-0.12055552
60	0xbe27f0b8	-0.1640042
61	0xbdf4e643	-0.119579814
62	0xbd35f20c	-0.044420287
63	0xbe146e20	-0.14495134
64	0x3de8eefa	0.11373706
65	0xbe346461	-0.17616417
66	0x3d91cf29	0.07119591
67	0xbea7102d	-0.3262953
68	0xbd406905	-0.046975154
69	0xbe66d432	-0.22541884
70	0x3e6c3cbe	0.23070046
71	0xbd97eeb3	-0.07418575
72	0xbe910d66	-0.28330535
73	0xbdf4ff17	-0.11962717
74	0xbdbb3fcb	-0.09143027
75	0xbe010487	-0.12599383
76	0x3cbcd1ca	0.023049254
77	0xbe7bcae6	-0.24589118
78	0x3e1481dd	0.14502664
79	0xbe9b09a1	-0.30280784
80	0xbc3d6458	-0.011559568
81	0x3e86c57a	0.26322538
82	0xbdb5f3ea	-0.088844135
83	0xbc9e539c	-0.019326977
84	0xbe889f26	-0.2668392
85	0x3c676519	0.014123225
86	0x3d247ce7	0.04015818
87	0x3d239a39	0.039942
88	0xbe8975bc	-0.26847637
89	0xbe29b434	-0.16572648
90	0x3dfdcbcf	0.12392389
91	0x3d49cf10	0.049269736
92	0xbe11066a	-0.14162603
93	0xbebca519	-0.3684471
94	0xbd30912b	-0.043107193
95	0xbe025117	-0.12726246
96	0x3e331723	0.17489295
97	0x3e51ed82	0.20500758
98	0xbe0696f3	-0.1314352
99	0x3d15b369	0.036548052
100	0x3d685467	0.056721117
101	0xbe9652f1	-0.29360154
102	0x3daba508	0.083810866
103	0xbe4dbb05	-0.20090874
104	0xbc9c1aae	-0.01905569
105	0x3c013b72	0.007887708
106	0xbe67c123	-0.2263227
107	0xbbc4be40	-0.006004125
108	0x3d791bbb	0.06081746
109	0x3d451e5b	0.048124652
110	0x3d3066f5	0.043066937
111	0x3d95100e	0.07278453
112	0xbdcb3abd	-0.09923313
113	0xbde74e2a	-0.112942055
114	0x3e025099	0.12726058
115	0xbe5c52ce	-0.21515962
116	0xbe9ae102	-0.30249792
117	0xbe06b9ff	-0.1315689
118	0x3d67f419	0.056629274
119	0xbe7195f0	-0.23592353
120	0x3dc4e848	0.09614617
121	0x3bc99bc6	0.006152603
122	0xbedd1b37	-0.43184826
123	0x3e018b99	0.12650909
124	0x3bb8f6e6	0.005644667
125	0x3df663e6	0.12030773
126	0xbc6363cb	-0.013878773
127	0xbcad9936	-0.02119122
128	0xbdf1f71e	-0.11814712
129	0xbe8d4199	-0.2758911
130	0xbe61c315	-0.22047074
131	0xbe01593b	-0.12631695
132	0xbd296bcc	-0.04136257
133	0xbe03b84e	-0.12863275
134	0xbcc8ffea	-0.024536092
135	0xbe9a7b09	-0.30171993
136	0xbde41ad3	-0.11137929
137	0xbd4c69f0	-0.049905717
138	0xbc16697e	-0.009180425
139	0xbe3e607d	-0.18591495
140	0xbe55742e	-0.208451
141	0xbd934279	-0.07190413
142	0xbeb4fa2d	-0.3534712
143	0x3db397bd	0.08769176
144	0xbe5e633b	-0.21717541
145	0xbe9f4ff0	-0.31115675
146	0x3cb1ffdb	0.021728447
147	0xbcc0a3ea	-0.02351566
148	0xbe9c1f65	-0.30492702
149	0xbe0ffa2a	-0.14060274
150	0x3e333d01	0.1750374
151	0xbdc301b8	-0.09521812
152	0xbcba9cf2	-0.022779915
153	0xbea0fc30	-0.31442404
154	0x3cc052f3	0.023477053
155	0xbc9e7a07	-0.019345297
156	0xbd7b0005	-0.061279316
157	0xbd8baa92	-0.06819643
158	0xbea3f57d	-0.3202323
159	0x3e12fb00	0.14353561
160	0x3e82aa84	0.25520718
161	0x3d30f865	0.043205637
162	0x3d96bd50	0.07360327
163	0x3dd833d2	0.10556759
164	0x3db9e4e1	0.09076858
165	0xbe2f941a	-0.1714634
166	0xbe41a958	-0.18912256
167	0x3dd79ff2	0.10528554
168	0xbc3b598a	-0.011434922
169	0xbe54069b	-0.20705645
170	0xbe53fcb8	-0.20701873
171	0xbe73c017	-0.23803745
172	0x3d4d3342	0.05009771
173	0x3d4b1bdb	0.049587112
174	0xbde89e5f	-0.11358332
175	0xbe394c0e	-0.18095419
176	0xbe02f253	-0.12787752
177	0xbeae03f6	-0.33987397
178	0xbe59a333	-0.21253662
179	0x3cd1fa58	0.025632069
180	0xbda2f9dc	-0.07957813
181	0x3b98709a	0.004652095
182	0xbcdec002	-0.027191166
183	0xbd63b911	-0.055596415
184	0xbe43a1e8	-0.19104731
185	0x3d9710c2	0.07376243
186	0xbe763a8c	-0.24045771
187	0x3cc649cf	0.024205117
188	0xbda17154	-0.07882944
189	0xbd30dba1	-0.043178204
190	0xbdfab158	-0.12240857
191	0xbc359fff	-0.011085509
192	0xbe11fe43	-0.1425715
193	0xbe29106c	-0.1651017
194	0xbc2392c3	-0.009983721
195	0xbcb6abdf	-0.022298751
196	0x3cb65952	0.022259388
197	0xbe21c666	-0.15798339
198	0xbe8559f5	-0.26045194
199	0xbd5a18b7	-0.053246226

fc2.weight f4 [200, 200]
0	0xbd59c45f	-0.05316579
1	0x3cb0fe66	0.021605682
2	0xbde4b370	-0.111670375
3	0x3c94aaa4	0.018147774
4	0x3da85163	0.08218648
5	0xbda18b95	-0.07887951
6	0xbdfcddbe	-0.123469815
7	0xbac25c89	-0.0014828603
8	0x3e28f969	0.16501392
9	0xbe08548a	-0.13313499
10	0x3da58deb	0.08083709
11	0x3d1c36fd	0.03813838
12	0xbe144add	-0.14481683
13	0xbe19f280	-0.15033913
14	0x3e6a589d	0.22885366
15	0xbe65e47e	-0.22450444
16	0x3e4f82b6	0.20264706
17	0x3da4bb50	0.080435395
18	0xbd8bd395	-0.068274654
19	0xbd68fb8f	-0.05688053
20	0x3d2bf832	0.041984744
21	0xbd4e3e07	-0.050352123
22	0x3ac350a3	0.0014901351
23	0x3ca75028	0.020423964
24	0xbe0712e7	-0.13190804
25	0x3e1733c8	0.14765847
26	0xbe0be221	-0.1366048
27	0x3d9212fd	0.07132528
28	0xbd106f5e	-0.035262458
29	0x3d0cbd39	0.034360144
30	0x3d6daac2	0.058024175
31	0x3c31a16f	0.010841711
32	0xbde647c6	-0.112441584
33	0xbb9e2519	-0.0048261997
34	0x3d0aeb30	0.0339157
35	0xbc4b4deb	-0.012408714
36	0xbd2247bd	-0.039619196
37	0x3bff767b	0.0077961064
38	0xbe0f27cd	-0.13980027
39	0x3cce4799	0.025180625
40	0xbd922618	-0.07136172
41	0xbe4c134e	-0.19929239
42	0xbd20617d	-0.039155472
43	0x3d081ac3	0.033228647
44	0xbd802490	-0.06256974
45	0x3e115868	0.1419388
46	0x3db8db10	0.09026158
47	0xbda2be00	-0.07946396
48	0xbcc45286	-0.023965131
49	0x3e152819	0.14566077
50	0x3e126429	0.1429602
51	0xbc5c89cd	-0.013460589
52	0xbe0d1fba	-0.13781634
53	0xbebd81b0	-0.37013006
54	0x3e18978e	0.14901564
55	0x3e04cb24	0.12968117
56	0xbe126cf4	-0.14299375
57	0x3c51407a	0.01277172
58	0xbe1d13e6	-0.15339622
59	0x3cfdf7d5	0.031001965
60	0xbd5cb303	-0.053881656
61	0xbe894458	-0.26809955
62	0x3dc44946	0.09584288
63	0x3e25081e	0.16116378
64	0x3e636cf8	0.22209537
65	0x3dee1e05	0.116268195
66	0xbd820e78	-0.06350416
67	0x3db0fc52	0.08641876
68	0x3c4aa0d7	0.012367449
69	0xbc917917	-0.017757935
70	0xbd027c13	-0.031856608
71	0xbd66d40d	-0.05635457
72	0x3a5bb6d7	0.0008381432
73	0x3e118744	0.14211756
74	0xbe0284f5	-0.12746032
75	0x3dcac566	0.09900932
76	0x3d12f83d	0.03588127
77	0x3cf6d383	0.030130154
78	0x3c9d9c1d	0.01923948
79	0xbcef4daf	-0.029211847
80	0xbc833492	-0.016016278
81	0xbcd5e032	-0.026107881
82	0xbcb0fda1	-0.021605315
83	0xbddeb36a	-0.10874064
84	0xbd30a9f2	-0.043130822
85	0xbda17fe9	-0.07885725
86	0xbe19d39e	-0.15022132
87	0xbda9bf11	-0.08288396
88	0x3e2fb310	0.1715815
89	0xbd3ff5b5	-0.046865184
90	0x3d3df3f7	0.04637524
91	0x3e3f26ca	0.1866714
92	0x3df95e0b	0.121761404
93	0xbc5d9da3	-0.013526353
94	0x3e25311f	0.1613202
95	0x3d8fbe5f	0.07018732
96	0x3d8ab651	0.06773055
97	0x3b09d5ab	0.0021031897
98	0xbe229e9d	-0.15880819
99	0x3def5d18	0.11687678
100	0x3e01ad41	0.12663747
101	0x3dafec1e	0.08589958
102	0x3e749d9c	0.23888248
103	0xbc62258a	-0.013802895
104	0x3df26ed8	0.11837548
105	0x3d5d4c08	0.054027587
106	0xbd1d47b5	-0.038398463
107	0xbe4ea734	-0.2018097
108	0xbc4ef1fa	-0.012630934
109	0xbd43a604	-0.047765747
110	0xbd80bf70	-0.06286514
111	0xbe1b2a8b	-0.15152948
112	0x3c2b2cc9	0.010447689
113	0xbdfa85c1	-0.12232543
114	0xbccc5a65	-0.024945447
115	0xbdb5ffed	-0.088867046
116	0xbe560cb4	-0.20903283
117	0x3d4264db	0.047459465
118	0xbd20afc1	-0.039230112
119	0xbddd1cf3	-0.10796537
120	0xbd48a56d	-0.048985887
121	0x3e0807eb	0.1328427
122	0xbd36aa0b	-0.04459576
123	0x3df4b269	0.119480915
124	0xbe89ae5e	-0.26890844
125	0x3c9f77f8	0.019466385
126	0x3d8f8d09	0.07009322
127	0x3d544c87	0.051830795
128	0x3d8fd704	0.07023433
129	0x3a1bb936	0.00059403793
130	0xbd80ce52	-0.062893525
131	0x3e00deb2	0.12584952
132	0x3c2b99c2	0.01047367
133	0x3b1d0827	0.0023961158
134	0x3d52acef	0.051434454
135	0xbe560a7f	-0.20902441
136	0x3d91ce53	0.07119431
137	0xbd63ff84	-0.0556636
138	0xbd891457	-0.06693333
139	0xbcbd9727	-0.023143364
140	0x3b63e591	0.0034774283
141	0xbb9592ac	-0.004564604
142	0x3b39462e	0.002827059
143	0x3e8d52a6	0.27602118
144	0xbdc629af	-0.09675919
145	0xbba5c8c7	-0.005059335
146	0xbb884092	-0.004158088
147	0xbe1f78a3	-0.15573363
148	0xbe1a7e3c	-0.15087217
149	0xbe17c0a8	-0.14819586
150	0x3e0214c3	0.12703232
151	0x3d271f02	0.040801056
152	0xbd9c418b	-0.07629689
153	0x3d28000e	0.041015677
154	0x3e11d7f1	0.14242531
155	0x3d992fdf	0.07479834
156	0xbcee1333	-0.02906189
157	0x3dda3d27	0.10656195
158	0x3a264290	0.0006342316
159	0x3d7a0646	0.06104114
160	0xbc8c8d10	-0.017157108
161	0x3d598fa2	0.053115495
162	0x3e0b9279	0.13630094
163	0x3da903f6	0.082527086
164	0xbe1cc61c	-0.15309948
165	0x3e43e53e	0.19130418
166	0xbdf1f30d	-0.118139364
167	0xbdcf0525	-0.10108403
168	0x3bb72d5e	0.005590125
169	0x3d5be1ba	0.053682067
170	0x3e0d954f	0.13826488
171	0x3e167669	0.14693607
172	0x3df24a53	0.118305825
173	0x3d6ea945	0.058266897
174	0x3cd12693	0.025531089
175	0xbcbd0612	-0.023074184
176	0xbd3a5633	-0.045492362
177	0x3e064171	0.13110901
178	0xbd294fc1	-0.041335825
179	0xbc5d56a3	-0.013509425
180	0x3b93bb32	0.0045083994
181	0x3d8faaed	0.070150234
182	0x3e366425	0.1781164
183	0x3db24e80	0.08706379
184	0x3cc78bc2	0.024358634
185	0xbe649428	-0.22322142
186	0x3e0fbd2d	0.14037009
187	0x39626fa5	0.0002159463
188	0x3d53141a	0.051532842
189	0xbdc2552b	-0.09488901
190	0x3e3fcbd1	0.18730094
191	0xbe15c027	-0.14624082
192	0x3e51fa1f	0.2050557
193	0x3e88b96a	0.2670396
194	0x3e2525a8	0.16127646
195	0xbdbb7a83	-0.09154227
196	0xbcd6dbda	-0.02622788
197	0xbe46a9b7	-0.19400679
198	0xbe19b7ed	-0.15011568
199	0xbd9a6494	-0.07538715
200	0xbda0bdc3	-0.07848694
201	0xbcbd785f	-0.023128686
202	0x3c4c976a	0.012487272
203	0x3c7c4aa0	0.015398651
204	0xbcff02cd	-0.031129265
205	0xbd416d87	-0.047223594
206	0x3b80da10	0.003932245
207	0xbda0fbc9	-0.07860524
208	0xbd2b8431	-0.041874114
209	0x3d208cec	0.039196894
210	0x3cec01a6	0.02880938
211	0xbc4b5d92	-0.012412446
212	0xbd9056be	-0.07047795
213	0xbbee550a	-0.007273321
214	0x3b32b635	0.0027269248
215	0x3d319b80	0.043361187
216	0x3b482510	0.003053967
217	0xbd114470	-0.035465658
218	0xb917a7b0	-0.0001446295
219	0xba0baeb4	-0.0005328462
220	0xbd12ae18	-0.03581056
221	0x3c88775d	0.01665848
222	0x3d5447c9	0.051826272
223	0x3c741a02	0.014898779
224	0xbd9c3d9a	-0.07628937
225	0x3ca521f9	0.020157801
226	0x3bba6220	0.005687967
227	0xbc97f913	-0.018551385
228	0xbd9c1783	-0.07621672
229	0x3d00ba41	0.031427626
230	0x3d49a3f9	0.049228642
231	0xbd5cf1bc	-0.053941473
232	0x3c8cf4d5	0.017206589
233	0xbcc8291a	-0.024433661
234	0xbc988547	-0.01861824
235	0xbcf861bf	-0.030320046
236	0xbd0d3feb	-0.034484785
237	0xbd8406eb	-0.06446632
238	0x3c46700f	0.012111678
239	0xbcc51799	-0.024059104
240	0xbd165e89	-0.03671125
241	0x3d680ec2	0.0566547
242	0xbd754ebb	-0.059889536
243	0xbdcbcf3b	-0.099516355
244	0x3c1726af	0.0092255315
245	0xbd93b1ac	-0.072116226
246	0xbcd7ed8d	-0.02635839
247	0xbc84e615	-0.016222993
248	0x3d37576e	0.044761114
249	0xbd8cbc03	-0.06871798
250	0xbc259356	-0.010105928
251	0xbce28e20	-0.027655661
252	0xbd9ec63b	-0.07752653
253	0x3da3a355	0.079901375
254	0xbd8626f8	-0.065504014
255	0xbcb5b594	-0.02218131

fc2.bias f4 [200]
0	0xbcbca19e	-0.023026284
1	0xbda51d29	-0.080622025
2	0xbcd558d2	-0.02604333
3	0x3dc4c812	0.09608473
4	0xbe1270eb	-0.14300887
5	0x3e177b81	0.14793207
6	0xbdcd5ffc	-0.10028073
7	0x3daf56fd	0.085615136
8	0xbccf00b0	-0.025268883
9	0x3d94e55d	0.0727031
10	0xbdbca78f	-0.09211647
11	0x3d1b9e1a	0.037992574
12	0xbd6fb639	-0.05852339
13	0xbbded56f	-0.0068003456
14	0xbd8f7a96	-0.07005803
15	0xbd49191d	-0.049096216
16	0xbd4f1d1f	-0.05056488
17	0x3e215313	0.15754347
18	0xbe4cd0c9	-0.2000152
19	0xbd1102e2	-0.03540314
20	0xbd9aae03	-0.07552721
21	0x3e10bfa0	0.14135599
22	0xbd9a090f	-0.07521259
23	0x3dc9975c	0.09843323
24	0xbd873d40	-0.066034794
25	0xbd64b7b5	-0.05583926
26	0x3d98b01a	0.07455464
27	0x3c3d4832	0.011552857
28	0xbbad5065	-0.005289125
29	0x3d8dfded	0.06933198
30	0xbb1ac256	-0.0023614368
31	0x3c93e938	0.018055543
32	0x3e247862	0.16061547
33	0xbbebfc1b	-0.007201684
34	0xbd872f1e	-0.06600784
35	0x3d8d70c0	0.06906271
36	0xbd44c64e	-0.04804068
37	0x3d960fdf	0.07327246
38	0xbcda3fe9	-0.026641803
39	0x3b31af04	0.0027112374
40	0xbc541765	-0.012945031
41	0x3db374e2	0.08762528
42	0xbe0007da	-0.12502995
43	0x3e012112	0.12610272
44	0xbd89e6a9	-0.06733448
45	0xbe3badcf	-0.18328021
46	0x3d2abb48	0.04168251
47	0xbd88fdd3	-0.06689038
48	0x3d37ae2b	0.044843834
49	0xbdb0ec0d	-0.08638773
50	0xbdc61d25	-0.09673528
51	0xbd0a9b8c	-0.033839747
52	0x3d9425dc	0.072337836
53	0x3dbb6898	0.09150809
54	0xbd467895	-0.04845484
55	0x3bff32c4	0.007788034
56	0xbd2378d0	-0.039910138
57	0x3e2d3411	0.16914393
58	0x3d92121a	0.07132359
59	0xbe0193d6	-0.12654051
60	0x3c7d0767	0.015443659
61	0x3d51260e	0.051061682
62	0x3dccd144	0.10000852
63	0xbb2174aa	-0.0024636188
64	0x3d439148	0.047745973
65	0x3c5c6e2b	0.013454
66	0x3d1e0f79	0.038588975
67	0xbb0d95c0	-0.002160415
68	0x3c809693	0.0156968
69	0xbbe4217e	-0.0069620004
70	0x3e1dc308	0.1540643
71	0x3e12b67c	0.14327425
72	0x3cfd3d0e	0.030912902
73	0xbc4155d9	-0.011800253
74	0xbe1d165f	-0.15340565
75	0x3b914055	0.004432718
76	0xbe2f3a9f	-0.17112206
77	0xbe14ab62	-0.14518502
78	0x3d540dbe	0.051770918
79	0x3d8de9a8	0.06929332
80	0x3cb55869	0.022136884
81	0x3d1cfbff	0.03832626
82	0xbdf564c3	-0.119821094
83	0x3d2d7a5d	0.042353023
84	0x3d2cfc3b	0.042232733
85	0x3e002539	0.125142
86	0xbe15fa68	-0.14646304
87	0x3d4c4917	0.04987439
88	0xbe1bc1c0	-0.15210629
89	0x3c0d6bdf	0.0086316755
90	0xbd8d708f	-0.069062345
91	0xbdcef85c	-0.101059645
92	0xbd212319	-0.039340112
93	0xbba87dff	-0.005141973
94	0xbd3458cb	-0.044029992
95	0x3d842f38	0.06454319
96	0x3cab3eac	0.020903908
97	0x3da9860f	0.08277523
98	0x3d022c9e	0.03178083
99	0xbd28ca46	-0.041208528
100	0xbd08a755	-0.033362705
101	0xbdda4dac	-0.10659346
102	0xbda63940	-0.08116388
103	0x3cea0dd3	0.028571045
104	0x3de2ff4b	0.110838495
105	0x3df5162b	0.11967119
106	0x3e0644bd	0.13112159
107	0xbdeafec0	-0.11474371
108	0x3da27a56	0.0793349
109	0x3d2971df	0.04136836
110	0x3dc03cc2	0.09386589
111	0xbcdb3296	-0.02675752
112	0x3cc5b40d	0.024133706
113	0xbc674046	-0.014114445
114	0xbcc11344	-0.023568757
115	0xbd18cd76	-0.037305318
116	0xbd117471	-0.035511438
117	0x3db6a32e	0.08917843
118	0x3de23bcb	0.11046561
119	0x3da56749	0.08076341
120	0x3d377fc5	0.044799585
121	0x3c660fb2	0.014041828
122	0xbdc099e7	-0.094043545
123	0xbd1b981c	-0.03798686
124	0x3dd2dbaa	0.10295804
125	0x3dfb018e	0.12256156
126	0xbdb0636b	-0.086127125
127	0xbdc9cf4e	-0.09853993
128	0xbe0fceee	-0.14043781
129	0xbdbda25e	-0.09259485
130	0x3c8093f5	0.015695551
131	0x3d87c2f1	0.06628979
132	0x3c3d448e	0.011551989
133	0xbdc86907	-0.097856574
134	0x3c86cbef	0.016454665
135	0x3d7420d5	0.059601624
136	0xbd6080bc	-0.05481027
137	0x3c6f0a9a	0.01458993
138	0xbdecb7e4	-0.11558512
139	0xbe0d5a54	-0.13803989
140	0xbc586c5e	-0.0132094305
141	0x3d54f337	0.05198976
142	0x3e18c055	0.14917119
143	0x3bd00dbb	0.006349293
144	0xbdaa84b8	-0.08326095
145	0xbe3e2580	-0.18568993
146	0xbe1506ea	-0.14553419
147	0xbd152a94	-0.03641756
148	0x3c4b5dfc	0.012412544
149	0xbdaac37b	-0.08338066
150	0x3d2b05e7	0.041753676
151	0x3dd2e040	0.102966785
152	0xbe27b798	-0.16378629
153	0xbdb98821	-0.09059168
154	0xbc65da5a	-0.01402911
155	0x3d34ef4f	0.044173535
156	0xbdbf6ae4	-0.0934656
157	0x3d446295	0.047945578
158	0x3c37a9e3	0.011209938
159	0xbc37696e	-0.01119457
160	0xbe364a2d	-0.17801733
161	0x3db98512	0.09058584
162	0x3dc71196	0.09720151
163	0x3d1cd183	0.038285743
164	0xbdb0d152	-0.08633675
165	0x3d22bb1c	0.039729223
166	0x3dcb740b	0.09934243
167	0xbd987362	-0.074438825
168	0x3daa2452	0.08307709
169	0xbd7599c9	-0.059961114
170	0xbdeccbfa	-0.11562343
171	0xbc89f98a	-0.016842622
172	0x3d58247d	0.052769173
173	0xbd57197a	-0.05251453
174	0xbc866639	-0.016406165
175	0xbce73032	-0.028221224
176	0x3c62bf54	0.0138395615
177	0x3d99ebc5	0.075156726
178	0xbe8834eb	-0.26602873
179	0x3e121144	0.14264399
180	0x3dafce81	0.08584309
181	0xbdf8eda8	-0.12154704
182	0x3e0c49eb	0.13700072
183	0x3d9e9d7f	0.07744884
184	0xbcef8ecc	-0.029242896
185	0xbcad1478	-0.021127924
186	0xbc931044	-0.017952092
187	0xbe471965	-0.19443281
188	0xbdb0ab8f	-0.08626472
189	0x3c88ce9c	0.016700082
190	0x3dd697dc	0.104781836
191	0xbc3610c7	-0.0111123985
192	0xba3dc01d	-0.0007238405
193	0xbcd2a629	-0.025713997
194	0xbd46dcb3	-0.04855032
195	0xbdb93570	-0.090433955
196	0xbdddc45c	-0.10828468
197	0xbd9c1050	-0.07620299
198	0xba832cc7	-0.0010007852
199	0xbdd29928	-0.102831185

fc3.weight f4 [200, 200]
0	0x3c31ae89	0.010844835
1	0x3d470fbf	0.048599
2	0x3d15c981	0.036569122
3	0xbdbb6eb3	-0.091519736
4	0x3e3c7ff3	0.18408184
5	0x3d97ae33	0.07406273
6	0x3e1d3a5a	0.1535429
7	0x3bc572ba	0.0060256394
8	0xbe94b5bd	-0.29044905
9	0x3ec574ea	0.3856576
10	0x3d78eede	0.060774677
11	0xbcea9a49	-0.028638022
12	0xbd0af648	-0.03392628
13	0xbca9e5d2	-0.02073947
14	0xbd9d4ca9	-0.076806374
15	0xb9e87ff1	-0.00044345812
16	0x3e244ca8	0.16044867
17	0xbda39eb7	-0.07989257
18	0x3cad6fe2	0.021171514
19	0xbd902892	-0.07038988
20	0xbe27b803	-0.16378789
21	0x3d615b7d	0.05501889
22	0x3c2612be	0.010136304
23	0x3de56d1a	0.1120245
24	0xbe0bf11a	-0.13666192
25	0xbe655e07	-0.2239915
26	0x3de5741c	0.11203787
27	0xbf38526d	-0.7200077
28	0x3e494765	0.19656141
29	0xbdc1dc6b	-0.094658695
30	0xbe55618d	-0.20837994
31	0xbf00c613	-0.5030224
32	0x3dc91a94	0.098195225
33	0x3d38ec15	0.04514702
34	0x3d8db6a6	0.06919603
35	0x3ddb504b	0.10708674
36	0xbe1f776d	-0.15572901
37	0x3e0a8735	0.1352814
38	0xbcaafe8c	-0.02087333
39	0x3db7d4bc	0.08976123
40	0x3e397da9	0.18114342
41	0x3e52a6d8	0.20571458
42	0xbe44e70c	-0.19228762
43	0x3e82af1e	0.2552423
44	0x3d22af27	0.03971782
45	0xbe8a655c	-0.27030456
46	0x3d719458	0.058979362
47	0xbce9673f	-0.028491614
48	0x3e7c6a05	0.24649818
49	0xbd10f35b	-0.03538833
50	0xbd2a6370	-0.041598737
51	0xbc129dc8	-0.008948751
52	0x3e4f9df1	0.20275094
53	0x3da8a227	0.08234053
54	0x3defeef4	0.117154986
55	0xbca688ef	-0.020328967
56	0xbd357949	-0.04430512
57	0x3b9ce0ec	0.004787555
58	0x3e54ef6e	0.2079446
59	0xbdb3e3ae	-0.08783661
60	0x3e313712	0.17306164
61	0x3e105404	0.1409455
62	0x3c080401	0.008301736
63	0xbdd7c2ea	-0.10535224
64	0x3d34d48d	0.044148017
65	0xbe80bc90	-0.25143862
66	0x3ee1d2ba	0.44106084
67	0xbd56bc73	-0.052425813
68	0xbd314ad8	-0.043284267
69	0x3da4d761	0.08048893
70	0x3e203bc4	0.15647799
71	0x3d8f7b0a	0.0700589
72	0xbc6e8a46	-0.014559334
73	0xbe235067	-0.1594864
74	0x3c6b7bea	0.014372805
75	0xbdf30133	-0.11865463
76	0xbf57c21f	-0.8428058
77	0xbea90e7a	-0.33018857
78	0xbcb789d2	-0.022404585
79	0x3e21836c	0.1577279
80	0xbe38fae1	-0.18064453
81	0x3e5ce09a	0.21570054
82	0xbdeb8081	-0.114991195
83	0x3d199145	0.037492055
84	0x3e52acaf	0.20573686
85	0x3e1993d2	0.14997795
86	0xbca4139a	-0.020028878
87	0x3e0d91e8	0.1382519
88	0xbe2e248c	-0.17006129
89	0xbc438812	-0.011934297
90	0x3cb70614	0.022341765
91	0x3d620b71	0.055186693
92	0x3de6725b	0.1125228
93	0x3e54195e	0.20712802
94	0x3dea33b3	0.11435642
95	0xbe8d996c	-0.27656114
96	0x3de13796	0.1099693
97	0xbdf5b4e7	-0.11997395
98	0xbdd4749e	-0.103738055
99	0xbda031c6	-0.078219935
100	0x3cfb502b	0.030677876
101	0x3bc2fdfb	0.005950687
102	0xbe474757	-0.19460808
103	0xbca6ae8d	-0.020346904
104	0x3e5ec6e2	0.21755555
105	0x3f016df9	0.5055843
106	0x3e1354aa	0.14387766
107	0xbd1128fd	-0.03543948
108	0x3dae99db	0.08525439
109	0xbdb04601	-0.08607102
110	0x3e036b51	0.12833907
111	0x3db38bef	0.087669246
112	0x3e38f363	0.18061595
113	0x3e119798	0.14217985
114	0xbe7d15ac	-0.24715298
115	0xbe7433a7	-0.23847829
116	0xbdac358a	-0.08408649
117	0xbca34c21	-0.019933762
118	0xbd85a04e	-0.06524716
119	0x3c1c2879	0.009531134
120	0xbd1a7ec9	-0.037718568
121	0x3d080773	0.03321023
122	0xbd749de5	-0.059720892
123	0xbe8e12af	-0.2774863
124	0x3d88b5f0	0.06675327
125	0xbdb371b3	-0.08761921
126	0x3e9f7c4d	0.3114952
127	0x3d941873	0.07231226
128	0xbdb3c5d3	-0.08777966
129	0x3c812806	0.015766155
130	0xbde30a03	-0.11085894
131	0x3d8bc428	0.06824523
132	0x3ccc6db2	0.02495465
133	0xbed181a6	-0.40919226
134	0x3e03cf05	0.1287194
135	0x3c3bf3d7	0.01147171
136	0x3e2668e0	0.16250944
137	0xbd4a058f	-0.049321707
138	0xba087624	-0.00052055926
139	0xbd565b04	-0.052332893
140	0xbd9606ec	-0.07325539
141	0x3df4752b	0.119364105
142	0x3e5ff95f	0.21872471
143	0xbecf3ca5	-0.40475956
144	0x3d9dafe8	0.07699567
145	0xbe5cd783	-0.21566586
146	0xbeac7a2f	-0.3368697
147	0xbd9be720	-0.07612443
148	0x3d806908	0.06270033
149	0x3e0f49e9	0.13993038
150	0x3d938050	0.07202208
151	0xbe5a7a4a	-0.21335712
152	0x3e4d0270	0.20020461
153	0x3c131215	0.008976479
154	0xbe1f290e	-0.15543005
155	0xbd644793	-0.05573232
156	0xbeb284dc	-0.3486699
157	0x3e949b52	0.2902475
158	0x3e370348	0.17872345
159	0xbd1d1d8a	-0.03835825
160	0xbe584d13	-0.21123151
161	0xbd38be9b	-0.04510365
162	0xbc79bbbf	-0.015242516
163	0xbd392b17	-0.04520711
164	0x3c4525db	0.012032951
165	0xbe8b66ae	-0.27226776
166	0x3ccb3049	0.024803298
167	0xbcddfad4	-0.027097143
168	0x3c2c6783	0.010522726
169	0x3d132113	0.035920214
170	0x3da67279	0.08127303
171	0x3db80812	0.08985914
172	0xbdbffa3a	-0.09373899
173	0xbcfbdfee	-0.030746426
174	0x3ec1777a	0.37786466
175	0x3dcd7f4d	0.10034046
176	0x3e5c24e2	0.21498445
177	0x3d158f3c	0.036513552
178	0xbd7817a7	-0.06056943
179	0x3dc15a17	0.094410114
180	0xbcd08f37	-0.025458915
181	0xbdd698ae	-0.1047834
182	0x3b2e4ca1	0.0026595967
183	0xbc54c6ba	-0.012986833
184	0x3ca3864e	0.019961502
185	0x3df96296	0.12177007
186	0xbc29d73b	-0.010366256
187	0xbdc1e87a	-0.094681695
188	0x3e103b63	0.14085154
189	0xbda37f34	-0.079832464
190	0xbe7396f0	-0.23788047
191	0xbdf16c2b	-0.117882095
192	0xbe0078dd	-0.12546106
193	0xbe0184d6	-0.12648329
194	0xbd77f587	-0.060536887
195	0xbe210f39	-0.15728463
196	0x3d29fd9f	0.041501638
197	0xbd56c5cd	-0.05243473
198	0xbd96a9c6	-0.073566005
199	0xbdc36457	-0.09540623
200	0x3de50a2a	0.11183579
201	0x3d9640c1	0.073365696
202	0xbd3f4e42	-0.04670549
203	0xbd4e5b67	-0.050380137
204	0xbe36e1f9	-0.17859639
205	0x3e23c994	0.15994865
206	0x3e1f4c7c	0.1555652
207	0x3d3fbf66	0.04681339
208	0x3d536980	0.051614285
209	0x3e8d43bd	0.27590743
210	0x3d8115d4	0.063029915
211	0xbe077f07	-0.13232051
212	0x3db845a8	0.08997661
213	0x3c63a2ef	0.013893827
214	0xbbceb275	-0.006307895
215	0xbea675d6	-0.32511777
216	0x3e79389f	0.24338005
217	0xbdad7b3b	-0.0847077
218	0x3d8ee6d2	0.06977619
219	0xbd1ec2a7	-0.038759854
220	0xbe4f35d9	-0.20235385
221	0x3b9019f7	0.0043976265
222	0xbdcbf2ed	-0.09958444
223	0x3e059a6c	0.13047189
224	0x3d1c4bd0	0.038158238
225	0x3e0965e9	0.13417782
226	0xbe6d1b48	-0.23154938
227	0xbe00fbb3	-0.12596016
228	0x3c827872	0.015926573
229	0xbab5159f	-0.0013815648
230	0x3e42fe0c	0.19042224
231	0xbe0333cd	-0.12812729
232	0x3cbe7dff	0.023253439
233	0x3e508602	0.2036362
234	0x3b7f2fe9	0.0038938469
235	0x3de5a54b	0.11213168
236	0x3d212730	0.039344013
237	0x3de01521	0.1094153
238	0xbe623257	-0.22089516
239	0x3dc80e9c	0.097684115
240	0xbd995b41	-0.074881084
241	0xbeca47a5	-0.39507785
242	0x3d7a6a40	0.061136484
243	0x3e15fb2a	0.14646593
244	0x3d066bcb	0.032817643
245	0xbeaf1072	-0.34192234
246	0x3eb8673b	0.3601626
247	0xbd578b7f	-0.05262327
248	0x3d9b9b1b	0.075979434
249	0x3d783f41	0.0606072
250	0xbe5abf18	-0.21361959
251	0xbdfd4438	-0.12366527
252	0x3da54d0d	0.08071337
253	0xbe6270fe	-0.22113416
254	0x3ce7e9ad	0.028309667
255	0xbe1d964e	-0.15389368

fc3.bias f4 [200]
0	0x3d720266	0.05908432
1	0xbbb4d1e6	-0.005518186
2	0x3cdc1b78	0.026868567
3	0x3d1c1b77	0.03811213
4	0x3d1d586f	0.038414415
5	0xbc11921b	-0.008884932
6	0x3d6208b7	0.055184092
7	0xbd2c75f9	-0.042104695
8	0x3d09c1ae	0.033631973
9	0x3d78fe44	0.06078936
10	0x3d46f5ae	0.048574142
11	0x3e3cca0e	0.18436453
12	0x3ccd631f	0.025071679
13	0x3d7d2847	0.06180599
14	0x3d0dfe87	0.034666564
15	0x3db0e5f1	0.08637608
16	0x3d19f2d8	0.03758511
17	0x3d557fb0	0.052123725
18	0x3c6068eb	0.013696889
19	0x3ca0dcf6	0.019636612
20	0x3dbe7a3e	0.093006596
21	0x3d36948e	0.044575267
22	0x3dae7eda	0.08520289
23	0x3dee4cce	0.11635743
24	0xbd1b6e35	-0.0379469
25	0x3d5750f3	0.052567434
26	0x3c8b5a05	0.017010698
27	0x3dc57393	0.09641185
28	0x3ce0bad5	0.027432838
29	0xbd21b39d	-0.039477933
30	0x3cb0dc6f	0.021589486
31	0x3d0fe1b8	0.03512737
32	0x3cbbb2eb	0.022912463
33	0x3d1dc102	0.038514145
34	0xbc346266	-0.011009788
35	0x3d5ad769	0.053428087
36	0x3def978e	0.11698829
37	0x3d289fbd	0.041167963
38	0xbb60255a	-0.003420195
39	0x3d298efe	0.041396134
40	0xbbcb41d3	-0.006202915
41	0x3b58f3b3	0.003310424
42	0xbb835b45	-0.004008683
43	0x3d88301a	0.066498
44	0x3d61462a	0.054998554
45	0xbb5f9092	-0.003411327
46	0xbd5d31f0	-0.054002702
47	0x3ce3ed01	0.027822973
48	0xbc207d1d	-0.009795454
49	0x3d8703e5	0.0659254
50	0x3d42b96f	0.047540125
51	0x3d136f95	0.035995085
52	0x3c81cbc3	0.015844231
53	0x3caeed75	0.021353463
54	0x3d410664	0.047125235
55	0xbbd01a90	-0.0063508227
56	0x3cef33ce	0.029199507
57	0x3ad318e5	0.0016105442
58	0x3d5924f3	0.053013753
59	0x3d53f319	0.051745508
60	0x3d863ee8	0.06554967
61	0xbd6b95f5	-0.057516057
62	0x3d5fd085	0.05464222
63	0x3c93e7ab	0.018054804
64	0xbc377779	-0.011197918
65	0x3d04bcc9	0.032406602
66	0x3dccf3d8	0.10007447
67	0x3e398666	0.18117675
68	0x3d556e04	0.052106872
69	0x3cb63b26	0.022245001
70	0x3d4090ad	0.047012974
71	0x3defd3a4	0.11710289
72	0x3d4d4764	0.05011691
73	0x3cc67619	0.024226235
74	0x3c724153	0.014786082
75	0x3e028318	0.12745321
76	0x3dcdf170	0.10055816
77	0x3d90cec0	0.070706844
78	0x3d90dccf	0.07073366
79	0xbd914d80	-0.0709486
80	0xbc061cb9	-0.008185559
81	0x3e0175fb	0.12642662
82	0x3ce398b1	0.02778277
83	0x3dfc2d68	0.12313348
84	0xbd388669	-0.04505006
85	0xbb397c2b	-0.002830277
86	0xbc7ea3f7	-0.015542022
87	0x3d940221	0.072269686
88	0x3cc44ae7	0.023961497
89	0x3c84c593	0.016207492
90	0x3c8e5a69	0.017377095
91	0xba9b7f62	-0.0011863525
92	0xbc999696	-0.018748563
93	0x3dd6f83c	0.10496566
94	0x3e3983ec	0.1811673
95	0xbd8d9930	-0.06913984
96	0x3db4aed3	0.088224076
97	0x3d947236	0.072483465
98	0xbd339775	-0.043845613
99	0x3d831f25	0.06402425
100	0x3cc4fa58	0.024045154
101	0x3b53f5a8	0.0032342467
102	0x3d8297de	0.063766226
103	0x3d56c61c	0.052435026
104	0x3d98f249	0.07468087
105	0xbd15a198	-0.03653106
106	0x3d25931e	0.040423505
107	0x3d56b41b	0.052417856
108	0xbc01d101	-0.007923366
109	0xbd78dd28	-0.060757786
110	0x3b8f86fa	0.004380104
111	0xbe0163a3	-0.12635665
112	0x3da6d3af	0.08145844
113	0x3c2641dd	0.010147539
114	0xbc79ab31	-0.015238569
115	0x3dd5af57	0.10433834
116	0x3db95009	0.090484686
117	0x3c57c1da	0.013168776
118	0xbd7d8cb0	-0.06190175
119	0xbcfd539f	-0.030923663
120	0x3cb77b11	0.02239755
121	0x3d387481	0.04503298
122	0x3e022b62	0.12711862
123	0x3d5017c3	0.05080391
124	0x3c8a52c3	0.016885167
125	0xba9de3bd	-0.0012046021
126	0xbc302dcf	-0.010753109
127	0x3c947c84	0.01812578
128	0x3d0b5aa9	0.034022007
129	0x3ce65e00	0.028120995
130	0xbdaa1d0e	-0.08306323
131	0x3d664a4b	0.056223195
132	0x3d8d3072	0.06894006
133	0x3d42d56a	0.04756681
134	0x3cbd4a7d	0.023106808
135	0xbd20046e	-0.039066724
136	0xbcc442c5	-0.02395762
137	0x3d5b47ae	0.053535156
138	0x3ba1a1f9	0.0049326387
139	0x3d8eab25	0.06966237
140	0x3d8be303	0.068304084
141	0xbda06ee2	-0.07833649
142	0x3db454e1	0.08805252
143	0xbc8dd8d2	-0.017315302
144	0xbdd18f53	-0.10232415
145	0x3bda2b08	0.0066579618
146	0x3d9f8567	0.07789116
147	0x3d6e6a19	0.05820665
148	0x3d904d16	0.07045953
149	0xbd2d91c6	-0.04237535
150	0x3c352b6e	0.011057718
151	0x3cb0a9ae	0.021565285
152	0x3dc48068	0.09594804
153	0x3c655a0f	0.013998522
154	0xbc81f3c1	-0.015863301
155	0xbdd48f44	-0.10378888
156	0x3d5ccd0b	0.05390648
157	0xbaae211f	-0.0013285017
158	0xbd8c86bb	-0.06861635
159	0xbbf76d32	-0.007550859
160	0xbe00f3fe	-0.12593076
161	0x3c81a321	0.015824856
162	0xbd868cf7	-0.06569856
163	0x3df642cc	0.12024459
164	0x3be53304	0.006994607
165	0x3d55df97	0.052215185
166	0x3cb0091c	0.021488719
167	0x3d6fe3ed	0.058566976
168	0x3d5c90e3	0.053849112
169	0x3dea1876	0.11430447
170	0xbd31eb34	-0.043437198
171	0xbcf6ff77	-0.030151112
172	0x3d4cf61e	0.050039403
173	0x3c823a21	0.015896859
174	0x3e07b695	0.13253243
175	0x3b9c8ee0	0.004777774
176	0x3dc0e809	0.09419257
177	0x3cb4ee8f	0.02208641
178	0x3cd0082c	0.025394522
179	0x3dc7d776	0.09757893
180	0xbc03ac91	-0.0080367485
181	0x3dc165e7	0.094432645
182	0x3d6eaea0	0.058272004
183	0xbddfc29d	-0.109257914
184	0x3da77104	0.08175853
185	0xbcae403c	-0.021270864
186	0x3e3a5f62	0.18200448
187	0x3d5919dc	0.053003177
188	0x3e01514f	0.12628673
189	0x3a469a6e	0.00075761124
190	0x3da8b5c5	0.08237795
191	0xbb6f958c	-0.0036557643
192	0xbd2b24fc	-0.041783318
193	0x3d47287b	0.04862259
194	0x3c2f7d2c	0.010710996
195	0xbce9aa89	-0.0285237
196	0x3cd52928	0.026020601
197	0x3dc78a64	0.09743193
198	0xbd65205c	-0.055939063
199	0x3ddb139e	0.10697101

fc4.weight f4 [2, 200]
0	0x3efc407c	0.49267948
1	0x3ea3aa9d	0.31966105
2	0xbe130d3a	-0.14360514
3	0xbd2259cd	-0.039636422
4	0x3c7855b2	0.01515715
5	0x3e8925ba	0.26786596
6	0x3e8728e0	0.26398373
7	0xbe472348	-0.19447052
8	0xbe02c29d	-0.12769552
9	0x3eb92033	0.3615738
10	0xbd8724f0	-0.06598842
11	0x3ec5355d	0.38517275
12	0x3ea66e9c	0.32506263
13	0x3d992e72	0.07479562
14	0xbd5cee30	-0.05393809
15	0xbdaf5c33	-0.085625075
16	0xbd1c30cf	-0.038132485
17	0x3dc0f8b2	0.09422435
18	0x3ebf9566	0.3741867
19	0x3deba76e	0.11506544
20	0xbe375f7e	-0.17907521
21	0x3eac9aaf	0.33711764
22	0x3f0df9ea	0.55459464
23	0x3eb7e2cf	0.3591523
24	0x3e8e5be2	0.27804476
25	0xbebb14a2	-0.3653918
26	0x3dd94099	0.10608024
27	0x3f34a691	0.7056666
28	0x3f0aae14	0.5417187
29	0x3f14dda7	0.58150715
30	0x3eb73705	0.35784164
31	0x3c57d3ff	0.013173102
32	0x3f18ddf8	0.597137
33	0xbd4d6b15	-0.05015095
34	0x3e861701	0.26189426
35	0xbc465352	-0.012104826
36	0x3ecec5b4	0.4038521
37	0xbd428682	-0.047491558
38	0xbda3e5ce	-0.08002816
39	0x3f00d6bc	0.5032766
40	0x3f0527dc	0.52013946
41	0x3ea51885	0.3224527
42	0x3dd4d4a4	0.103921205
43	0xbdf53ce1	-0.11974502
44	0x3ecfef82	0.40612417
45	0x3ecb861d	0.39750758
46	0x3d4a5bb7	0.049403872
47	0x3e321096	0.1738914
48	0xbe00f7fa	-0.12594596
49	0xbdcd6d90	-0.10030663
50	0x3da1ad4f	0.07894384
51	0x3eb8db3c	0.36104763
52	0x3f6d4a20	0.9269123
53	0x3dca899c	0.09889528
54	0xbe14d283	-0.14533429
55	0x3f25158e	0.64486015
56	0x3cc3bd95	0.02389411
57	0xbbb1b67c	-0.005423365
58	0x3c6796a7	0.014135039
59	0xbd8ec2e5	-0.06970767
60	0xbdb9bfea	-0.09069808
61	0xbd9e593e	-0.07731865
62	0xbdafab7b	-0.08577629
63	0x3ed8dde5	0.42356792
64	0x3e24beaf	0.16088365
65	0x3e8239ef	0.25434825
66	0xbdf444e0	-0.11927199
67	0x3eda8e43	0.42686662
68	0x3dd8f735	0.10594026
69	0x3ea22d79	0.31675318
70	0x3d3535a1	0.044240598
71	0x3d3c46c4	0.045965925
72	0xbd320756	-0.043464027
73	0x3f059910	0.5218668
74	0xbd87cb24	-0.06630543
75	0x3e83a67e	0.2571296
76	0x3ec49cb3	0.38400802
77	0x3f178293	0.59183615
78	0x3ec0daa1	0.376668
79	0xbde97936	-0.11400072
80	0x3e9fc26a	0.31203014
81	0x3e061281	0.13092996
82	0xbdf833ed	-0.12119279
83	0x3e018efb	0.12652199
84	0xbdedb39f	-0.11606526
85	0xbda529c0	-0.08064604
86	0x3eb2afa2	0.34899622
87	0x3eb24221	0.34816077
88	0x3f545adc	0.8295114
89	0x3f16aef9	0.5886074
90	0x3e933bfd	0.28756705
91	0x3effe46a	0.49978954
92	0xbd61a12f	-0.055085357
93	0x3e0b8253	0.13623933
94	0xbc91ab8c	-0.017781995
95	0x3f02a132	0.51027215
96	0x3e398cda	0.18120137
97	0x3f02ec1b	0.5114152
98	0xbd7fde95	-0.06246813
99	0x3edc3b95	0.43014207
100	0xbd501742	-0.05080343
101	0x3e8e4c5e	0.2779264
102	0xbc173a61	-0.009230227
103	0xbde1a0db	-0.11017009
104	0xbdd2aff5	-0.102874674
105	0xbe34d65a	-0.17659894
106	0xbcf63601	-0.030055048
107	0xbde4375b	-0.11143371
108	0x3e486c19	0.19572486
109	0xbe0ad13b	-0.13556378
110	0xbdadbf79	-0.08483786
111	0x3f39d9b4	0.72597814
112	0xbe003403	-0.12519841
113	0x3e99084f	0.2988915
114	0x3eb73e8e	0.35789913
115	0x3e5490af	0.20758317
116	0xbe0686cf	-0.13137363
117	0xbc6ba1eb	-0.014381866
118	0xbdf71237	-0.12064021
119	0xbd4b1239	-0.049577925
120	0x3e63276f	0.22183011
121	0xbe10c8e4	-0.14139134
122	0x3ee142e7	0.43996355
123	0x3f059b56	0.5219015
124	0xbe0b9eaa	-0.13634744
125	0xbde1771a	-0.11009045
126	0x3f197420	0.5994282
127	0x3e351ff2	0.17687967
128	0xbe371edb	-0.17882864
129	0x3ddfa78f	0.10920631
130	0x3e351372	0.17683199
131	0xbdd12a14	-0.10213104
132	0xbe094412	-0.13404873
133	0xbdcfe165	-0.101504125
134	0x3e7e75ed	0.24849673
135	0x3f552330	0.83256817
136	0x3e592acf	0.21207736
137	0x3ec8f782	0.39251333
138	0x3ee10484	0.43948758
139	0xbed1ddf9	-0.40989664
140	0x3e73113f	0.23737048
141	0xbdd876a4	-0.10569504
142	0x3f1baed8	0.60813665
143	0xbebe5fc7	-0.37182447
144	0xbda4c881	-0.080460556
145	0x3e6a9c81	0.22911264
146	0x3eab66b7	0.33476803
147	0x3d0f37eb	0.034965437
148	0xbd904a2e	-0.07045399
149	0xbd0f8f65	-0.03504886
150	0x3ddd2b50	0.10799277
151	0x3ee2a78d	0.44268456
152	0x3c035d52	0.008017855
153	0x3edd2b62	0.4319716
154	0x3f081a59	0.53165203
155	0xbe1e93e5	-0.15486105
156	0xbda2771f	-0.07932877
157	0x3e83d3d7	0.25747558
158	0x3ec70b10	0.38875628
159	0x3e7210b4	0.23639184
160	0xbe78d67a	-0.24300566
161	0xbe21bcf7	-0.1579474
162	0xbd43cad2	-0.047800846
163	0xbda86a25	-0.082233705
164	0xbd063cb8	-0.03277275
165	0x3ef0fae9	0.4706643
166	0x3ed8a611	0.423142
167	0xbe1a2fbc	-0.15057272
168	0x3cbfb068	0.023399547
169	0x3e9b2b46	0.30306453
170	0xbda47589	-0.080302306
171	0xbd503beb	-0.050838392
172	0xbf0c6563	-0.54842204
173	0xbdb189d7	-0.08668869
174	0x3e8a1ae1	0.26973632
175	0x3bb8cf5c	0.0056399535
176	0x3ee5bdaf	0.4487128
177	0x3e20d1ee	0.15705082
178	0xbd9d9415	-0.0769426
179	0x3eefbc0c	0.46823156
180	0x3dc29df6	0.09502785
181	0xbdac86a6	-0.0842412
182	0xbdc4414a	-0.095827654
183	0x3e8e866f	0.2783694
184	0x3edcae4d	0.4310173
185	0xbeae0439	-0.33987597
186	0x3ec9bbdb	0.39401135
187	0x3e814739	0.2524965
188	0x3efc6f76	0.49303788
189	0xbd93619a	-0.071963504
190	0xbb1cc86d	-0.0023923174
191	0x3d841dbd	0.064509846
192	0x3f184950	0.59486866
193	0x3e02ec5c	0.12785476
194	0x3e814d61	0.25254348
195	0xbe2c979a	-0.16854706
196	0x3f458273	0.77152175
197	0x3dfd2d3e	0.12362145
198	0x3c893abb	0.016751638
199	0x3ed7b5c6	0.4213087
200	0x3e08d6c6	0.1336318
201	0x3e9f8d6f	0.31162593
202	0xbe97d01c	-0.29650962
203	0x3c0925d3	0.008370834
204	0x3ecb796a	0.3974107
205	0x3e885af4	0.26631892
206	0xbf09316c	-0.53591037
207	0x3ea07d59	0.31345633
208	0x3e2eb6fe	0.17061993
209	0xbe817b81	-0.25289539
210	0x3e226996	0.1586059
211	0x3dbe6316	0.09296243
212	0xbe9c6bb6	-0.30550927
213	0x3eeef17c	0.46668613
214	0x3b6e69e6	0.0036379038
215	0xbb8bf501	-0.00427115
216	0x3be6ed7e	0.0070473542
217	0xbf01fccc	-0.5077636
218	0x3ebc3ee0	0.3676672
219	0x3e8aa617	0.27079841
220	0x3e899ad6	0.26875943
221	0x3e6f6fab	0.23382442
222	0x3e492fc0	0.19647121
223	0xbf05747d	-0.5213087
224	0xbe72278d	-0.236479
225	0xbf19e3bf	-0.6011314
226	0xbf168a4c	-0.58804774
227	0x3df123c8	0.11774403
228	0x3ea0f32e	0.3143553
229	0xbdfd9417	-0.123817615
230	0xbe44372f	-0.19161676
231	0xbf0e6aec	-0.556319
232	0xbd9db50e	-0.07700549
233	0x3c258245	0.010101859
234	0xbe8c4529	-0.27396515
235	0xbbf7a18f	-0.007557101
236	0xbc23b8ac	-0.00999276
237	0x3e97271a	0.2952202
238	0x3ca406fe	0.020022865
239	0x3e39b0a7	0.18133794
240	0xbef60eb0	-0.4805808
241	0x3dc6ce06	0.097072646
242	0x3ef33c8a	0.47507125
243	0x3e901229	0.28138855
244	0xbdfa34e0	-0.12217116
245	0x3ea6f050	0.3260522
246	0x3ee4f628	0.44719052
247	0xbeb3ed10	-0.35141802
248	0x3f2ac5e9	0.66708237
249	0xbe3cf930	-0.18454432
250	0x3e1c2487	0.15248309
251	0xbceabd66	-0.028654765
252	0x3db0f83b	0.08641096
253	0x3f0598e0	0.52186394
254	0x3f4c4ce5	0.7980483
255	0xbcf158ac	-0.029461227

fc4.bias f4 [2]
0	0xbd1a2802	-0.03763581
1	0xbc4bcaae	-0.012438459
